signlang.pt (torch, 650083 bytes, 30 tensors)

conv1.weight f4 [16, 3, 3, 3]
-0.2168337 0.36770093 0.47706094 -1.4433861 -1.1246039 -0.76833504 -2.5277739 -1.9051585
-1.6003376 0.672823 1.8688442 2.1861126 -0.17915413 0.5165502 0.95850337 -1.1279716
-0.2808282 -0.0746038 0.8511824 1.9174677 2.1192489 -0.011589574 0.76158017 1.2483063
-0.7502405 -0.007383102 0.26280507 -1.5549306 -1.9330678 -1.8441827 -0.37432307 -1.1637651
-0.56388706 0.56489956 0.11648382 0.51262826 0.9182357 0.71720475 0.8579601 1.2180889
1.0584517 1.2243407 1.9689924 1.8475468 1.9979378 -1.3365765 -1.5137796 -1.385144
-0.73734933 -1.28642 -1.163471 -0.2611209 -0.5953099 -0.16768944 0.11147631 0.23029307
0.2598473 -0.35195142 -0.27137858 -0.45672357 -0.51050514 -0.8211093 -0.565912 -2.7462084
-2.153718 -2.6629467 -2.4510126 -2.7685215 -2.882783 -2.9242222 -3.3756063 -3.3645747
0.49377623 0.49577716 0.42544097 0.5838566 0.81785417 1.084521 1.3010714 1.5203902
1.3662075 1.728667 1.743639 1.6467948 0.92841977 0.5105266 0.67458653 0.0157679
-0.14076431 -0.01169638 1.3135358 0.9215806 1.1807935 -0.14074957 -0.78232795 -0.72657996
-1.3349935 -1.8905885 -1.8863364 0.43926978 0.17388001 0.46774563 -0.71386266 -1.2879934
-1.0976857 -1.83126 -2.2941432 -2.2441792 0.3795137 0.5349881 0.97004294 0.37021196
0.46173745 0.36823416 0.29921502 0.3517251 0.5773177 -2.2120361 -1.7170854 -1.1954874
-2.3399227 -2.0067449 -1.2866869 -2.4190674 -2.114543 -1.4449549 0.40747613 0.7165526
1.5879282 0.28165358 0.8276321 1.3368242 0.43128043 0.99221027 1.373357 -2.34103
-1.4674424 0.15492265 -2.1752129 -1.2740847 0.5141543 -1.3324368 -0.18376069 1.0061257
-0.008465235 0.8364514 2.1394787 -0.24851984 0.63190854 1.6317189 -0.025430318 0.6583972
1.9699398 -1.7745737 -0.5201372 0.56128126 -1.8945198 -0.9047661 0.5584883 -1.7840769
-0.56622493 0.6449668 -0.06701605 -0.31299928 -0.34589872 -0.108831935 -0.4847628 -0.7493446
0.08581864 -0.60103095 -1.2138538 -0.47683457 -0.309666 -0.7786491 -0.52708006 -0.7227962
-1.3525017 -0.238363 -0.6249425 -1.5894226 2.4676123 2.3585176 1.5517476 2.3234026
1.9838115 0.99181086 2.3503015 1.4823453 0.4275093 1.3818995 0.84360546 0.47203562
1.1411005 0.7487877 0.31138158 0.79128754 0.43623087 0.21532725 0.9447281 0.39008212
-0.46185854 0.2805706 0.06309618 -0.4458693 -0.20349129 -0.699999 -0.9917775 -1.6846759
-2.244715 -2.9504993 -1.437144 -1.9229668 -2.7351608 -2.0468457 -2.3265493 -2.485824
0.64969534 0.76127744 1.1695294 0.10177735 0.25455827 0.7617615 -0.062345285 0.18051799
0.22796482 1.3244298 1.6649184 1.9726678 0.28299043 0.5632615 0.95701534 0.16176249
0.44164872 0.8345793 -1.5023924 -1.2516439 -0.97748697 -2.3816524 -2.0836864 -1.8022631
-2.5290778 -2.3912373 -2.080576 0.728695 0.6046747 0.5022223 0.53836215 0.50156
0.40333107 0.75661415 0.39267156 0.335084 -1.6358193 -2.287411 -2.296938 -1.7341506
00000000: a709 5ebe 4c43 bc3e 5541 f43e e0c0 b8bf
00000010: 05f3 8fbf 9bb1 44bf 0cc7 21c0 3cdc f3bf
00000020: ddd7 ccbf 213e 2c3f 4936 ef3f 45e9 0b40
00000030: 2e74 37be a23c 043f 7a60 753f 6061 90bf
00000040: b7c8 8fbe e1c9 98bd 17e7 593f 956f f53f
00000050: c6a1 0740 32e2 3dbc ebf6 423f 80c8 9f3f
00000060: c30f 40bf f3ed f1bb 638e 863e f707 c7bf
00000070: c46e f7bf 2e0e ecbf 46a7 bfbe 41f6 94bf
00000080: e75a 10bf 429d 103f 128f ee3d 9b3b 033f
00000090: 7f11 6b3f bb9a 373f 46a3 5b3f 56ea 9b3f
000000a0: 587b 873f 32b7 9c3f f107 fc3f 6a7c ec3f
000000b0: 6dbc ff3f f014 abbf 88c3 c1bf 664c b1bf
000000c0: edc2 3cbf 69a9 a4bf 9eec 94bf a3b1 85be
000000d0: 3b66 18bf c8b6 2bbe b14d e43d f2d1 6b3e
000000e0: b50a 853e fa32 b4be 22f2 8abe acd7 e9be
000000f0: 77b0 02bf 3834 52bf 9cdf 10bf e1c1 2fc0
00000100: 84d6 09c0 b86d 2ac0 64dd 1cc0 752f 31c0
00000110: 847f 38c0 7526 3bc0 ef09 58c0 3155 57c0
00000120: 3dd0 fc3e 81d6 fd3e 66d3 d93e a077 153f
00000130: e45e 513f 96d1 8a3f 8289 a63f 259c c23f
00000140: e3df ae3f f644 dd3f 902f df3f 2cca d23f
00000150: ebac 6d3f dfb1 023f b4b1 2c3f af2b 813c
00000160: 8524 10be 2ca2 3fbc f121 a83f b5ec 6b3f
00000170: 3e24 973f a820 10be a546 48bf 2501 3abf
00000180: 11e1 aabf cefe f1bf 7973 f1bf f8e7 e03e
00000190: 9a0d 323e 5b7c ef3e b4bf 36bf f8dc a4bf
000001a0: f780 8cbf ba66 eabf 3ed3 12c0 a2a0 0fc0
000001b0: 9f4f c23e fbf4 083f bc54 783f 6c8c bd3e
000001c0: da68 ec3e 3089 bc3e b632 993e 5015 b43e
000001d0: 18cb 133f 0092 0dc0 74c9 dbbf bb05 99bf
000001e0: 4bc1 15c0 826e 00c0 28b2 a4bf 00d2 1ac0
000001f0: ac54 07c0 48f4 b8bf b6a0 d03e fe6f 373f
00000200: 3b41 cb3f e634 903e b3df 533f 0e1d ab3f
00000210: cad0 dc3e 7e01 7e3f 2aca af3f 6fd3 15c0
00000220: 27d5 bbbf 0ba4 1e3e b036 0bc0 3515 a3bf
00000230: 9e9f 033f 4a8d aabf c32b 3cbe bac8 803f
00000240: c5b1 0abc ae21 563f 38ed 0840 fc7b 7ebe
00000250: c2c4 213f 2adc d03f 3e53 d0bc b88c 283f
00000260: fd26 fc3f 3b25 e3bf b627 05bf 21b0 0f3f
00000270: a07f f2bf c09e 67bf 17f9 0e3f a25c e4bf
00000280: 1ef4 10bf 8b1c 253f b63f 89bd 7141 a0be
00000290: a319 b1be 47e3 debd d432 f8be 0cd5 3fbf
000002a0: afc1 af3d 2add 19bf 905f 9bbf a923 f4be
000002b0: 8b8c 9ebe 8c55 47bf b8ee 06bf 2c09 39bf
000002c0: c71e adbf 6e15 74be 3bfc 1fbf 3372 cbbf
000002d0: 5ced 1d40 f4f1 1640 aa9f c63f a1b2 1440
000002e0: 89ed fd3f 51e7 7d3f 576b 1640 7ebd bd3f
000002f0: 80e2 da3e 15e2 b03f 87f6 573f a7ae f13e
00000300: 950f 923f 8db0 3f3f 686d 9f3e d291 4a3f
00000310: a759 df3e bf7e 5c3e b3d9 713f d8b8 c73e
00000320: b978 ecbe f3a6 8f3e 9238 813d fb48 e4be
00000330: 0560 50be 2233 33bf 21e5 7dbf 76a3 d7bf
00000340: 69a9 0fc0 fbd4 3cc0 56f4 b7bf c723 f6bf
00000350: e00c 2fc0 85ff 02c0 2fe6 14c0 be17 1fc0
00000360: 6f52 263f 14e3 423f 24b3 953f a570 d03d
00000370: 7655 823e cd02 433f c55d 7fbd b5d9 383e
00000380: 9c6f 693e ea86 a93f 0c1c d53f 6180 fc3f
00000390: 1fe4 903e e831 103f f5fe 743f 11a5 253e
000003a0: c81f e23e fda6 553f 654e c0bf de35 a0bf
000003b0: 963c 7abf fe6c 18c0 1e5b 05c0 8fb0 e6bf
000003c0: 69dc 21c0 080a 19c0 2828 05c0 c18b 3a3f
000003d0: f6cb 1a3f a491 003f 1ad2 093f 3c66 003f
000003e0: 6981 ce3e 77b1 413f 3f0c c93e 2190 ab3e
000003f0: 8762 d1bf f164 12c0 0801 13c0 a6f8 ddbf

conv1.bias f4 [16]
-0.29795745 -0.61289036 -1.1729573 0.27827662 -0.17498669 0.39739203 1.4568287 -1.2613802
-0.7406814 -0.92211634 0.12167177 0.37039226 -1.9010229 -0.65841603 -0.56466067 -0.4803057
00000000: e18d 98be 62e6 1cbf 7723 96bf 467a 8e3e
00000010: b62f 33be f876 cb3e 5d79 ba3f e874 a1bf
00000020: 4c9d 3dbf d10f 6cbf 0d2f f93d 0ea4 bd3e
00000030: b854 f3bf f48d 28bf 9a8d 10bf a1ea f5be

conv2.weight f4 [32, 16, 5, 5]
0.9721876 0.80277056 0.60740215 -0.02993634 -0.6125937 0.31206384 0.6215308 0.5856402
0.052737195 -0.54846793 -0.7009761 -0.42630398 -0.17275654 -0.5009086 -1.1283932 -0.08909354
0.10197008 0.08307359 -0.074637294 -0.38897544 0.7658305 0.5048658 0.5105859 0.5369315
0.5250107 3.874281 2.9566867 2.774857 3.5448213 5.0021596 2.505017 1.8225752
1.5512587 1.8697197 3.156267 1.6133654 1.3106219 1.0882093 1.5195336 2.462323
0.47730386 0.41944703 0.3409862 0.67979133 1.308791 0.20435712 0.4952198 0.7283926
0.8913416 1.1474818 -0.102930196 0.13601016 0.41728446 0.60107833 0.6832776 0.075842015
0.441358 0.78032583 0.8884583 0.9583197 0.081392355 0.42633125 0.79514945 1.163246
1.3693906 -0.22290932 0.050463703 0.37740332 1.019088 1.1397465 -0.94561356 -0.80366904
-0.32941738 0.32049218 0.5863748 0.54364145 0.9378425 1.1483616 1.4046835 1.7123568
0.18032281 0.7301369 1.2140977 1.369358 1.5708491 -0.09961642 0.17307833 0.6386403
0.8980318 1.1059417 -0.6760345 -0.41291296 -0.0015331348 0.48424813 0.82823735 -1.132734
-1.0734029 -0.71969634 -0.08674828 0.47005156 -2.5159693 -2.0184503 -1.5383176 -1.3932899
-1.6136218 -2.041023 -1.2145542 -0.591506 -0.38101882 -0.69477576 -2.1282644 -1.315825
-0.58348846 -0.29155275 -0.5835606 -2.3910573 -1.744082 -1.14942 -0.74266773 -0.8048562
-2.523693 -2.1979184 -1.7059951 -1.2727158 -1.0943139 2.256528 2.2582865 2.1139653
2.2758849 2.8004286 0.89681417 1.0127925 1.1958426 1.3880508 1.89226 0.13528603
0.26898408 0.44839135 0.7977681 1.3674756 -0.09815301 0.074999765 0.21557805 0.5168113
1.0875136 -0.27996817 -0.37860754 -0.19127446 0.20487952 0.83478945 0.790052 1.2120401
1.3854809 1.5408967 1.2197604 -0.05869462 0.31273878 0.8271315 1.0065657 0.6937057
-0.5737495 -0.36115816 0.13668394 0.2299744 0.1524238 -0.6956374 -0.836605 -0.5279873
-0.37550893 -0.33358225 -0.68190753 -0.81346744 -0.5687863 -0.48634243 -0.40402547 1.5449473
1.6222993 1.8502412 2.344392 3.0012221 1.064942 1.2569149 1.5387931 1.8535624
2.4051652 0.96388894 0.99468434 1.3669282 1.7555101 2.1346557 0.3585513 0.3932254
0.82841283 1.2615094 1.770653 -0.3538429 -0.400011 0.0038858529 0.6098911 1.0521376
2.7481651 2.5045404 2.6402197 3.1605284 4.3485475 1.4509691 1.454691 1.7981516
2.333317 3.1956847 0.7479619 0.67789996 0.92400646 1.6325022 2.3264136 0.20016515
0.032521293 0.25068828 0.91818094 1.6373672 -0.5227834 -0.8815885 -0.6063085 0.09361703
0.9242374 -2.8423433 -2.3701837 -1.9020728 -1.8817483 -2.1395261 -1.9490548 -1.1586571
-0.6011247 -0.6490068 -1.0838537 -1.7736157 -0.994126 -0.3014358 -0.31597954 -0.6282134
-1.9588885 -1.334422 -0.6330543 -0.3593497 -0.55627745 -2.2244756 -1.7991974 -1.1957105
-0.780547 -0.68217325 0.69766176 -0.10157452 -0.4911327 -0.7541291 -0.8391182 0.7644807
00000000: 49e1 783f 5f82 4d3f b57e 1b3f 0e3d f5bc
00000010: f1d2 1cbf d5c6 9f3e a41c 1f3f 84ec 153f
00000020: f502 583d 6568 0cbf 2b73 33bf 8444 dabe
00000030: 17e7 30be 8c3b 00bf 306f 90bf ad76 b6bd
00000040: b0d5 d03d 7d22 aa3d 70db 98bd ca27 c7be
00000050: 780d 443f e33e 013f c2b5 023f 5874 093f
00000060: 1a67 063f 38f4 7740 5b3a 3d40 4297 3140
00000070: 5ade 6240 b111 a040 3352 2040 254a e93f
00000080: a58f c63f fa52 ef3f 4700 4a40 c282 ce3f
00000090: 75c2 a73f 714a 8b3f 1480 c23f b396 1d40
000000a0: 2c61 f43e c3c1 d63e be95 ae3e ce06 2e3f
000000b0: 7786 a73f fe42 513e 738d fd3e f077 3a3f
000000c0: f72e 643f afe0 923f 11cd d2bd 3f46 0b3e
000000d0: 4fa6 d53e 45e0 193f 48eb 2e3f 0f53 9b3d
000000e0: adf9 e13e 6fc3 473f 0172 633f 7154 753f
000000f0: 09b1 a63d 1748 da3e ea8e 4b3f 3fe5 943f
00000100: 3148 af3f 5742 64be 07b3 4e3d 023b c13e
00000110: 7a71 823f 37e3 913f bb13 72bf 41bd 4dbf
00000120: 65a9 a8be 8d17 a43e a91c 163f 162c 0b3f
00000130: 7216 703f 83fd 923f abcc b33f 822e db3f
00000140: 8ba6 383e 40ea 3a3f 8e67 9b3f 1f47 af3f
00000150: 9511 c93f b203 ccbd 723b 313e ee7d 233f
00000160: 69e5 653f 7f8f 8d3f 9910 2dbf 5469 d3be
00000170: 78f3 c8ba 5fef f73e 5d07 543f 6dfd 90bf
00000180: 4465 89bf 053e 38bf 15a9 b1bd 99aa f03e
00000190: a405 21c0 4a2e 01c0 97e7 c4bf 5357 b2bf
000001a0: 298b cebf 1fa0 02c0 8376 9bbf f06c 17bf
000001b0: e614 c3be d3dc 31bf 7c35 08c0 f46c a8bf
000001c0: 805f 15bf 6746 95be 3a64 15bf 1507 19c0
000001d0: 143e dfbf 3220 93bf 791f 3ebf 0e0b 4ebf
000001e0: 3084 21c0 b2aa 0cc0 0c5e dabf 5ae8 a2bf
000001f0: 7a12 8cbf f46a 1040 c487 1040 354b 0740
00000200: 19a8 1140 393a 3340 9d95 653f 2fa3 813f
00000210: 5f11 993f a6ab b13f 9335 f23f 6c88 0a3e
00000220: 48b8 893e 8d93 e53e 883a 4c3f 7109 af3f
00000230: 7204 c9bd 7a99 993d 7ec0 5c3e bf4d 043f
00000240: a533 8b3f fd57 8fbe d9d8 c1be 74dd 43be
00000250: f0cb 513e c3b4 553f d940 4a3f 2124 9b3f
00000260: 7057 b13f 1a3c c53f 1c21 9c3f c569 70bd
00000270: 4c1f a03e e4be 533f 25d7 803f b296 313f
00000280: 3fe1 12bf b9e9 b8be e0f6 0b3e 697e 6b3e
00000290: fc14 1c3e 4b15 32bf bf2b 56bf 2d2a 07bf
000002a0: b542 c0be 4bcb aabe 7e91 2ebf 673f 50bf
000002b0: fb9b 11bf e001 f9be 6ddc cebe d5c0 c53f
000002c0: 81a7 cf3f b4d4 ec3f 850a 1640 0614 4040
000002d0: 0550 883f 96e2 a03f 2cf7 c43f 8841 ed3f
000002e0: 3aee 1940 6dc1 763f a2a3 7e3f 81f7 ae3f
000002f0: 8eb4 e03f 339e 0840 0994 b73e d754 c93e
00000300: dd12 543f 2479 a13f c2a4 e23f e62a b5be
00000310: 3ece ccbe cba9 7e3b d321 1c3f 72ac 863f
00000320: f0e1 2f40 644a 2040 5cf9 2840 1946 4a40
00000330: 4d27 8b40 5bb9 b93f 5133 ba3f d529 e63f
00000340: 1155 1540 1986 4c40 6e7a 3f3f da8a 2d3f
00000350: b08b 6c3f d5f5 d03f f6e3 1440 18f8 4c3e
00000360: 0c35 053d 375a 803e e80d 6b3f 4095 d13f
00000370: 22d5 05bf c9af 61bf 0937 1bbf 49ba bf3d
00000380: d29a 6c3f f4e8 35c0 17b1 17c0 1f77 f3bf
00000390: 21dd f0bf ffed 08c0 a17a f9bf e04e 94bf
000003a0: 4fe3 19bf 4f25 26bf b8bb 8abf d705 e3bf
000003b0: 0b7f 7ebf cb55 9abe 12c8 a1be 98d2 20bf
000003c0: dcbc fabf 57ce aabf d90f 22bf affc b7be
000003d0: 3368 0ebf cf5d 0ec0 1a4c e6bf 0b0d 99bf
000003e0: eed1 47bf e8a2 2ebf f699 323f 4d06 d0bd
000003f0: bf75 fbbe 9b0e 41bf 73d0 56bf 02b5 433f

conv2.bias f4 [32]
-0.68696535 0.35438716 0.0069608716 -0.5643133 -0.97796524 -0.558765 0.091988765 -1.2802529
-0.34174216 0.31242186 -0.3647576 -1.5153908 0.088997684 -0.18243554 -0.04691155 0.5393619
-0.16447341 0.16520804 -0.014276591 -0.20416921 0.2213928 -0.022869067 0.5060237 -0.15003121
-0.0667225 0.3525528 -0.11227773 1.2365043 0.15350896 -0.66574335 0.13236883 0.10518306
00000000: f6dc 2fbf 3c72 b53e 0618 e43b d676 10bf
00000010: ee5b 7abf 390b 0fbf 9b64 bc3d 54df a3bf
00000020: d4f8 aebe c2f5 9f3e 82c1 babe 53f8 c1bf
00000030: 6b44 b63d 62d0 3abe 5326 40bd 9f13 0a3f
00000040: b86b 28be 4c2c 293e 5de8 69bc bc11 51be
00000050: cbb4 623e e957 bbbc c58a 013f c8a1 19be
00000060: cea5 88bd cd81 b43e def1 e5bd c645 9e3f
00000070: 7431 1d3e 286e 2abf b28b 073e 376a d73d

conv3.weight f4 [64, 32, 5, 5]
3.0448663 2.0708337 1.142779 0.99859124 1.6365464 1.5479785 0.56410676 -0.62147427
-0.91504925 -0.5369147 -0.24890815 -0.8281881 -1.1280876 -1.3417743 -1.225183 -0.35928035
0.06175466 0.110782735 -0.033747558 -0.4647727 -0.5259966 0.20700423 0.96769387 0.6601454
0.012022416 1.5408424 2.1159205 2.150876 1.7874557 1.453518 -0.07128966 0.060728986
-0.064275034 -0.23091955 -0.11207172 -1.2388808 -1.273302 -1.4754722 -1.5333803 -1.3757784
-1.1522405 -1.4549221 -2.0401378 -2.213389 -1.9177488 0.6159801 0.28730768 -0.011973802
-0.44386208 -0.62797844 0.6164114 1.7289418 2.2308087 2.1651516 1.5581715 -1.5220096
-0.70037925 -0.4019991 -0.4539497 -0.95784855 -1.7325301 -0.8974778 -0.52582264 -0.5872167
-1.1303 -1.5736859 -0.5561252 -0.22013396 -0.528746 -1.4857199 -0.47937185 0.25667235
0.5380058 0.2503009 -0.4925128 1.3107684 0.7766833 0.7547272 0.99672735 1.6883421
0.6644227 0.45934224 0.67491287 1.0817306 1.6152161 0.07507445 0.116996236 0.5493518
0.9978978 1.6083637 -0.44431219 -0.023985207 0.6632983 1.1093795 1.3162104 -1.4230653
-0.7939292 0.1933055 0.7461921 0.60437995 1.553566 1.003059 0.6570982 1.2089721
2.3520691 0.94526666 0.1263977 -0.4571872 -0.0024362335 0.8168864 0.44642922 0.066710636
-0.18821476 0.27763766 1.0926787 -0.8724889 -1.1818997 -0.74047375 -0.290603 0.33051527
-1.8456787 -1.2593623 -0.65411067 -0.38057345 -0.04209314 -2.1798663 -3.2017703 -4.0403934
-4.9401207 -5.848024 -0.61054295 -1.8219255 -2.5884526 -2.6797867 -3.2055128 -0.027789963
-1.3125802 -1.599486 -0.7162877 -0.9077556 -0.1877331 -1.2356137 -0.88418674 -0.6119856
-0.28626895 -1.2087059 -1.2359264 -0.9890887 -0.3257686 -0.08505007 0.4651546 0.40441635
0.4249676 0.40419722 0.38973528 0.2157654 0.21767576 0.2901492 0.27852005 0.21611004
0.058505345 0.09144442 0.14190567 0.1703352 0.14579174 -0.12743068 -0.07232293 -0.13500114
-0.044240396 -0.07708576 -0.34580418 -0.28538474 -0.2411803 -0.25365123 -0.27573946 -0.74982643
-1.7624848 -2.5584953 -1.9164171 -1.1452233 0.448669 0.0038110327 -0.11241175 0.3900627
1.0053611 0.5329633 0.3571427 0.5350029 0.73705065 0.8703642 1.0779881 0.8936848
0.893186 0.6952228 0.78496337 2.2983673 1.5122459 0.90344965 0.7676862 1.107114
-4.1121383 -3.9146588 -3.433 -2.9594147 -3.2259974 -1.4029524 -1.1257979 -1.4885558
-1.7822824 -1.9142976 -0.56186444 0.09250782 -0.40623176 -1.044119 -0.54772466 -0.76703876
0.15628499 0.3531221 -0.48049828 -0.43816748 -0.03858047 0.61622375 0.8236967 0.59486943
0.69073606 -3.4463725 -2.2425883 -0.6665333 0.13593262 0.16525054 -3.0645928 -1.9825052
-1.1651394 -0.69338936 -0.5637892 -2.1782403 -1.7678965 -1.9915982 -1.9401028 -0.90676033
-0.7548871 -1.0116946 -1.4220347 -0.97895443 -0.11409643 0.1521651 0.44988054 0.35849357
0.4933913 1.1469402 0.9319824 0.7314231 0.59023076 0.44725177 0.42112738 0.9126423
00000000: 17df 4240 8a88 0440 9546 923f ada3 7f3f
00000010: 5a7a d13f 2924 c63f 4d69 103f f018 1fbf
00000020: ab40 6abf 3e73 09bf c7e1 7ebe 2304 54bf
00000030: 2d65 90bf 43bf abbf ccd2 9cbf 98f3 b7be
00000040: 74f2 7c3d 0fe2 e23d e13a 0abd b0f6 edbe
00000050: b7a7 06bf ebf8 533e c9ba 773f 4aff 283f
00000060: abf9 443c 533a c53f 3e6b 0740 f4a7 0940
00000070: 59cb e43f e10c ba3f 5000 92bd f5be 783d
00000080: a1a2 83bd 2d76 6cbe dc85 e5bd a593 9ebf
00000090: 8ffb a2bf 46dc bcbf ce45 c4bf 8219 b0bf
000000a0: 9e7c 93bf e33a babf 9e91 02c0 2aa8 0dc0
000000b0: cb78 f5bf dfb0 1d3f fe19 933e c42d 44bc
000000c0: e441 e3be 32c3 20bf 23cd 1d3f f74d dd3f
000000d0: 92c5 0e40 d891 0a40 2a72 c73f 36d1 c2bf
000000e0: 0e4c 33bf d3d2 cdbe 186c e8be 9035 75bf
000000f0: 8cc3 ddbf 1bc1 65bf 509c 06bf d553 16bf
00000100: acad 90bf 8a6e c9bf 395e 0ebf cc6a 61be
00000110: e65b 07bf 122c bebf 3a70 f5be 8f6a 833e
00000120: c0ba 093f 7127 803e a32a fcbe 42c7 a73f
00000130: b7d4 463f cd35 413f 8629 7f3f 981b d83f
00000140: 9b17 2a3f e82e eb3e 17c7 2c3f 2676 8a3f
00000150: 67bf ce3f a2c0 993d b99b ef3d 52a2 0c3f
00000160: 3b76 7f3f ddde cd3f e37c e3be a07c c4bc
00000170: ebcd 293f 2600 8e3f 9579 a83f 0127 b6bf
00000180: f23e 4bbf e1f1 453e 7206 3f3f a5b8 1a3f
00000190: 40db c63f 3d64 803f 9637 283f 99bf 9a3f
000001a0: 4d88 1640 fffc 713f 666e 013e 7114 eabe
000001b0: 37a9 1fbb 781f 513f 5f92 e43e 969f 883d
000001c0: 5fbb 40be 8626 8e3e e5dc 8b3f 6f5b 5fbf
000001d0: 7d48 97bf b08f 3dbf ebc9 94be 4c39 a93e
000001e0: 333f ecbf c932 a1bf cc73 27bf 86da c2be
000001f0: db69 2cbd ee82 0bc0 cee9 4cc0 e74a 81c0
00000200: 7815 9ec0 0323 bbc0 8b4c 1cbf db34 e9bf
00000210: 35a9 25c0 a081 2bc0 1f27 4dc0 c7a7 e3bc
00000220: a102 a8bf f5bb ccbf a15e 37bf ac62 68bf
00000230: 1b3d 40be 9728 9ebf 105a 62bf 17ab 1cbf
00000240: d891 92be e0b6 9abf d632 9ebf eb34 7dbf
00000250: 24cb a6be bb2e aebd be28 ee3e a90f cf3e
00000260: 5a95 d93e f0f2 ce3e 628b c73e 9bf1 5c3e
00000270: 65e6 5e3e 708e 943e 2e9a 8e3e f34b 5d3e
00000280: 4da3 6f3d 3647 bb3d b84f 113e 5a6c 2e3e
00000290: 6e4a 153e 307d 02be 0b1e 94bd bd3d 0abe
000002a0: 6b35 35bd 24df 9dbd 3f0d b1be f31d 92be
000002b0: f8f7 76be 93de 81be b92d 8dbe a0f4 3fbf
000002c0: 1a99 e1bf 63be 23c0 284d f5bf ad96 92bf
000002d0: f1b7 e53e 85c2 793b 2238 e6bd 4cb6 c73e
000002e0: acaf 803f 4870 083f 68db b63e f3f5 083f
000002f0: 5aaf 3c3f 30d0 5e3f 84fb 893f 87c8 643f
00000300: d6a7 643f 1ffa 313f 5cf3 483f 7318 1340
00000310: 4691 c13f 7a48 673f 1587 443f e9b5 8d3f
00000320: a396 83c0 c589 7ac0 46b6 5bc0 0d67 3dc0
00000330: be76 4ec0 f293 b3bf 251a 90bf ff88 bebf
00000340: d421 e4bf b407 f5bf 59d6 0fbf bd74 bd3d
00000350: 9cfd cfbe b1a5 85bf af37 0cbf a75c 44bf
00000360: 2c09 203e 6bcc b43e df03 f6be 7d57 e0be
00000370: 8e06 1ebd d7c0 1d3f c9dd 523f 5d49 183f
00000380: 14d4 303f 5e91 5cc0 9186 0fc0 eda1 2abf
00000390: ec31 0b3e 7037 293e 4a22 44c0 bbc2 fdbf
000003a0: 4a23 95bf f781 31bf 7d54 10bf 4a68 0bc0
000003b0: 6f4a e2bf b1ec febf 4a55 f8bf 7221 68bf
000003c0: 4840 41bf 357f 81bf 3c05 b6bf c29c 7abf
000003d0: 64ab e9bd 2bd1 1b3e be56 e63e 788c b73e
000003e0: c99d fc3e f0ce 923f 6696 6e3f 8b3e 3b3f
000003f0: 5d19 173f 2ffe e43e 029e d73e eda2 693f

conv3.bias f4 [64]
0.16786198 -0.13804321 -0.53022176 -0.094789214 0.22654499 0.35719925 0.22913554 -0.3582524
-0.28989205 0.059914805 0.17810878 0.24073006 -0.624514 -0.012441063 0.2185967 0.10700641
0.22547247 0.43575796 -0.25975996 0.5056391 -0.42642817 0.25262624 0.0834427 0.051165704
0.08156304 -0.020749047 0.17939664 -0.1681858 -0.14763488 -0.35749707 -0.3760785 0.071491376
0.3500707 -0.107366145 -0.11814995 -0.30302808 0.041570976 -0.39772102 0.19313462 -0.08457743
1.0269303 -0.118081555 -0.0940286 0.21283707 -0.059421 -0.17501822 0.6639008 0.15458035
0.5368413 0.24018113 0.27347356 -0.10321118 0.14517331 -0.24295425 -0.0244336 -0.3380111
-0.39390698 -0.3668834 0.047616504 -0.021984609 0.16628951 0.027291851 0.625789 0.55135393
00000000: 03e4 2b3e 335b 0dbe 9dbc 07bf d920 c2bd
00000010: 69fb 673e d2e2 b63e 82a2 6a3e dc6c b7be
00000020: bb6c 94be 3a69 753d 2662 363e f181 763e
00000030: 26e0 1fbf 9ad5 4bbc d0d7 5f3e 2d26 db3d
00000040: 41e2 663e ab1b df3e 42ff 84be 9071 013f
00000050: cb54 dabe 3a58 813e 02e4 aa3d 2193 513d
00000060: 860a a73d e8f9 a9bc c1b3 373e e638 2cbe
00000070: 992d 17be db09 b7be 5c8d c0be 126a 923d
00000080: 773c b33e c8e2 dbbd 9af8 f1bd 7f26 9bbe
00000090: 5446 2a3d 17a2 cbbe 15c5 453e ee36 adbd
000000a0: 7472 833f bed4 f1bd 1192 c0bd f6f1 593e
000000b0: 6f63 73bd fa37 33be 67f5 293f 504a 1e3e
000000c0: 6e6e 093f 0bf2 753e ba04 8c3e 6260 d3bd
000000d0: 50a8 143e 00c9 78be f928 c8bc ca0f adbe
000000e0: 2dae c9be 24d8 bbbe 8609 433d 1119 b4bc
000000f0: cc47 2a3e 2993 df3c b533 203f 8825 0d3f

conv4.weight f4 [128, 64, 3, 3]
-2.188287 -1.056092 -1.6487335 -1.5842727 -0.76848495 -1.306021 -1.126747 -0.7649316
-0.72720194 1.4844879 0.47447675 1.090654 1.3131834 -1.5656571 -0.0038239332 1.0026255
-2.2787323 -1.4811368 0.5458967 -0.21589202 0.1460726 -0.10978185 0.59781 0.15654603
0.71910137 1.0195228 0.54300386 -0.16041154 -0.8960266 -0.52244025 0.5570662 0.2181876
0.46010602 1.2538929 1.9099069 1.727999 -1.4231987 -0.041468073 -2.5825984 -0.30924988
-0.7645057 -1.1783987 1.9323735 -0.03885156 0.6440309 1.187429 0.5399267 0.47001582
0.2869511 -1.3012551 -1.4934803 -0.24214639 -0.52241844 -1.9640083 -0.53548557 0.92484564
0.32222852 -1.8299234 0.13800421 0.51187724 -2.5635545 -1.8364851 -0.08748519 0.10602306
-3.105223 -1.394866 0.99280024 -2.0939567 -0.8281647 1.2310408 0.42553616 0.9756958
0.5451477 -0.06320375 0.67348725 1.1679515 -0.5174899 -0.40033805 1.8334183 -0.9479867
-0.8412365 -1.2094339 -1.3615682 -0.13481596 -0.25961533 0.65466183 1.0340236 0.3733442
2.2577496 2.0135024 -0.91026175 0.25508165 -0.95337236 -1.671326 -0.49873263 0.74076223
-1.2554972 -0.4685157 0.69039667 1.8269495 1.4274327 2.7088501 0.9508523 0.19074944
1.3077335 0.37317458 -0.4212838 1.4205387 0.4093431 -1.6640915 -1.1209732 0.5837127
-1.6507401 0.07374004 2.1961892 -0.027043035 1.3949674 -1.0861465 -1.2605617 -1.9342351
-2.6975796 -1.3718547 -1.6747744 -1.7749238 -0.11665982 0.39680094 0.602087 -0.3367221
-0.47442088 0.40194017 -0.51658815 -0.54628026 0.9226387 0.17917833 0.41534212 0.9568576
-0.3964493 1.5762752 1.5030419 -0.9745995 1.6542803 0.926676 -0.29951397 1.663414
0.50973374 0.1068307 0.60738045 0.70087004 0.46537778 1.234194 2.384122 2.0215085
2.4257948 0.48830768 0.35154343 -0.8281183 -0.086034946 -0.6307037 -0.3758469 0.1954286
-0.2856336 -0.9614304 0.89058167 -1.4347193 0.819691 2.019141 -2.550292 1.3770648
1.8949977 -2.844341 0.7668207 0.8234758 -2.376307 -0.5116287 1.084838 -2.4320982
-0.43108726 0.9622238 -2.2487872 -0.46636415 -0.83408767 0.22934422 0.2946816 -0.98957086
0.29282275 0.08291379 -1.343726 0.045218278 -0.2995393 -0.1608862 1.7467711 1.4920524
0.26725513 0.3195752 2.809515 -0.2756752 -0.110509485 2.8094587 -0.08377499 -0.08318939
0.028306505 -0.122054696 -0.44346815 -0.2195423 0.44514757 -0.0062624686 -0.09244547 -0.048326325
-1.3021069 -0.7125209 0.05153391 -1.2568903 -0.9952657 0.6041603 -0.223697 0.12514538
0.24342369 0.5476261 -1.4748274 -0.10245706 -0.14892973 -0.38675085 -0.9473688 -1.5402662
-1.0276438 -1.5486982 -1.8533063 -0.25159824 -2.01411 -1.4481678 -0.73388684 -2.736867
-1.5085559 -0.7489308 -1.3534904 -0.8461267 -0.115959525 -1.2827317 -1.5418516 -0.68248934
-1.5409188 -0.8589871 -0.69636923 -0.8904982 -1.7650872 -2.996151 -1.6804157 -0.7373128
-1.997287 -0.7188964 1.149526 -0.3913608 -0.8196939 -1.2902935 -0.6720276 -1.293634
00000000: e50c 0cc0 062e 87bf b309 d3bf 73c9 cabf
00000010: 6ebb 44bf b22b a7bf 3f39 90bf 8fd2 43bf
00000020: e829 3abf b303 be3f 9eee f23e 8d9a 8b3f
00000030: 6516 a83f 7467 c8bf f49a 7abb 0856 803f
00000040: c0d6 11c0 e495 bdbf e3bf 0b3f cc12 5dbe
00000050: 0e94 153e 4ed5 e0bd 130a 193f 9a4d 203e
00000060: 0717 383f b97f 823f 4d02 0b3f ec42 24be
00000070: 0062 65bf a5be 05bf e49b 0e3f 926c 5f3e
00000080: 0493 eb3e 907f a03f d477 f43f 122f dd3f
00000090: 602b b6bf 6dda 29bd 4b49 25c0 0056 9ebe
000000a0: a5b6 43bf c5d5 96bf 0458 f73f d022 1fbd
000000b0: 36df 243f acfd 973f a338 0a3f eaa5 f03e
000000c0: 41eb 923e 878f a6bf 5d2a bfbf 39f5 77be
000000d0: 37bd 05bf a064 fbbf 9515 09bf afc2 6c3f
000000e0: 23fb a43e ee3a eabf fa50 0d3e 630a 033f
000000f0: 4711 24c0 f211 ebbf 6f2b b3bd 9e22 d93d
00000100: f9bb 46c0 f88a b2bf 2828 7e3f 6303 06c0
00000110: 9a02 54bf bf92 9d3f e0df d93e 33c7 793f
00000120: cd8e 0b3f f870 81bd a969 2c3f 6f7f 953f
00000130: 387a 04bf 1cf9 ccbe 73ad ea3f 42af 72bf
00000140: 465b 57bf bbce 9abf de47 aebf 320d 0abe
00000150: 4dec 84be eb97 273f e35a 843f f926 bf3e
00000160: f87e 1040 39dd 0040 ea06 69bf 109a 823e
00000170: 3610 74bf 03ee d5bf e259 ffbe 98a2 3d3f
00000180: 22b4 a0bf 4ae1 efbe d6bd 303f 7bd9 e93f
00000190: 1db6 b63f cd5d 2d40 0e6b 733f d253 433e
000001a0: d063 a73f bd10 bf3e 83b2 d7be 36d4 b53f
000001b0: 6b95 d13e f300 d5bf 0d7c 8fbf 326e 153f
000001c0: 744b d3bf 0505 973d 5d8e 0c40 5b89 ddbc
000001d0: 4b8e b23f d906 8bbf 165a a1bf 0495 f7bf
000001e0: 25a5 2cc0 ef98 afbf 025f d6bf b430 e3bf
000001f0: 58eb eebd 7e29 cb3e 6022 1a3f d766 acbe
00000200: 4be7 f2be 1acb cd3e 1f3f 04bf 06d9 0bbf
00000210: 0d32 6c3f 867a 373e b9a7 d43e 9ff4 743f
00000220: 67fb cabe 63c3 c93f ad63 c03f 5a7f 79bf
00000230: 75bf d33f a33a 6d3f e559 99be c0ea d43f
00000240: e97d 023f 0eca da3d 497d 1b3f 386c 333f
00000250: ff45 ee3e 12fa 9d3f 7495 1840 6560 0140
00000260: 3940 1b40 7703 fa3e 80fd b33e 90ff 53bf
00000270: 1733 b0bd cc75 21bf 016f c0be 6f1e 483e
00000280: 913e 92be 4d20 76bf 29fd 633f e2a4 b7bf
00000290: 45d7 513f 9b39 0140 fc37 23c0 a943 b03f
000002a0: 498f f23f af09 36c0 5d4e 443f 4fcf 523f
000002b0: 6a15 18c0 19fa 02bf f9db 8a3f 7fa7 1bc0
000002c0: 78b7 dcbe 4d54 763f 21ec 0fc0 48c7 eebe
000002d0: c586 55bf 36d9 6a3e 82e0 963e 8454 7dbf
000002e0: ddec 953e b5ce a93d 37ff abbf cd36 393d
000002f0: 375d 99be 5abf 24be 3296 df3f 93fb be3f
00000300: aad5 883e 5c9f a33e 18cf 3340 4d25 8dbe
00000310: cc52 e2bd 2cce 3340 3992 abbd 335f aabd
00000320: 0be3 e73c d0f7 f9bd 420e e3be b2cf 60be
00000330: 62ea e33e 6535 cdbb 0d54 bdbd d3f1 45bd
00000340: 70ab a6bf c567 36bf 3915 533d c8e1 a0bf
00000350: bcc9 7ebf 40aa 1a3f d410 65be 1c26 003e
00000360: 0f44 793e 3931 0c3f 25c7 bcbf 02d5 d1bd
00000370: 0981 18be 3504 c6be c386 72bf 7127 c5bf
00000380: d589 83bf be3b c6bf 2439 edbf 7cd1 80be
00000390: 2ee7 00c0 905d b9bf 02e0 3bbf d428 2fc0
000003a0: 5c18 c1bf eeb9 3fbf 2c3f adbf c29b 58bf
000003b0: 307c edbd 8d30 a4bf 655b c5bf 9fb7 2ebf
000003c0: d43c c5bf 94e6 5bbf 4145 32bf b1f7 63bf
000003d0: 61ee e1bf f0c0 3fc0 dd17 d7bf 88c0 3cbf
000003e0: 1aa7 ffbf 9809 38bf ab23 933f 7160 c8be
000003f0: 76d7 51bf 5628 a5bf 000a 2cbf cd95 a5bf

conv4.bias f4 [128]
-0.39349782 -0.71253157 -0.9227553 0.22654274 -1.2364756 0.5128721 -1.3768262 -1.0172087
-0.93440825 -1.2336143 -0.8557005 -1.658997 -1.5978838 -1.1635122 -0.32565144 0.08967877
-1.2175344 0.19901045 -0.15233108 -0.060633104 -0.15195271 -0.09547404 0.007728112 -0.7666611
-0.30154866 -0.35068756 -0.370189 -0.12795848 -0.69562554 -0.98396075 -0.0054736263 -0.25750294
0.32100868 -0.23811015 -0.2868689 -0.45876154 0.5006026 -1.6916144 -2.069968 0.20957227
-1.1847582 -1.0403477 0.17572115 -0.85035765 -0.074847184 -0.59906894 -1.0006596 -0.46502045
-1.7173194 -0.49692175 0.2601938 -0.49903637 -1.3753179 -0.5073587 0.03183237 -1.4083594
-1.0240545 -0.38715997 -0.29117602 -0.44918984 -0.58639187 0.0842972 -1.399344 -0.36181712
0.31703395 -0.34099254 -0.75800544 -0.5922973 -1.4045918 -0.31526962 -0.45944715 -0.46368766
-0.59903187 -0.003572374 -1.2178053 -0.6653511 -0.6748724 0.049770493 0.053732846 -0.6889514
-1.001382 -1.0277884 -0.20790921 -0.8106674 -1.3876543 -0.34995466 -0.716007 0.10918602
-0.628765 -0.0027219476 -0.1441658 -0.53079927 -0.894768 -0.1276475 -0.49737656 -1.5261755
-0.58416194 -0.37496856 -0.7409259 -0.7517412 -0.8662525 -1.1296237 0.20778586 -0.10395305
-0.075379856 -0.66460943 -0.96589375 -1.8759582 -0.80817634 -0.04340055 -1.4100802 -1.0733978
-1.1560626 0.34104303 -0.99275494 -0.4319138 -0.79728734 0.08493496 -0.44763583 -0.48653692
-0.16480869 -0.6234601 -0.9046031 -0.9812594 0.03534022 -0.7177549 -0.812376 0.1037423
00000000: 8c78 c9be 7868 36bf b139 6cbf d2fa 673e
00000010: d544 9ebf 964b 033f d73b b0bf e533 82bf
00000020: 6135 6fbf 13e7 9dbf 300f 5bbf 045a d4bf
00000030: 7587 ccbf f8ed 94bf c9bb a6be 81a9 b73d
00000040: 2bd8 9bbf 65c9 4b3e aefc 1bbe 6b5a 78bd
00000050: 7e99 1bbe e587 c3bd 1a3c fd3b e743 44bf
00000060: 9664 9abe 528d b3be 6a89 bdbe 8c07 03be
00000070: 8414 32bf dae4 7bbf 1b5c b3bb 6dd7 83be
00000080: 405b a43e 26d3 73be 7be0 92be cbe2 eabe
00000090: 7e27 003f d286 d8bf 5b7a 04c0 1d9a 563e
000000a0: 28a6 97bf 1d2a 85bf 3ff0 333e 0ab1 59bf
000000b0: 7b49 99bd 955c 19bf 9d15 80bf 2917 eebe
000000c0: 1fd1 dbbf 876c febe 1f38 853e b281 ffbe
000000d0: 6b0a b0bf 42e2 01bf a962 023d 1f45 b4bf
000000e0: 3814 83bf d539 c6be 0615 95be 36fc e5be
000000f0: c71d 16bf 03a4 ac3d b41d b3bf 1840 b9be
00000100: 4652 a23e 9396 aebe a50c 42bf cca0 17bf
00000110: aac9 b3bf 056b a1be a83c ebbe 7868 edbe
00000120: 275a 19bf 7d1e 6abb 0be1 9bbf 7354 2abf
00000130: 70c4 2cbf 25dc 4b3d f916 5c3d 1e5f 30bf
00000140: 492d 80bf 928e 83bf 27e6 54be e687 4fbf
00000150: a89e b1bf 422d b3be 3c4c 37bf ec9c df3d
00000160: bef6 20bf b462 32bb 33a0 13be 76e2 07bf
00000170: 840f 65bf 07b6 02be 24a8 febe b859 c3bf
00000180: a38b 15bf e1fb bfbe 52ad 3dbf 1c72 40bf
00000190: b9c2 5dbf 8297 90bf d1c5 543e 56e5 d4bd
000001a0: c160 9abd d823 2abf d044 77bf 661f f0bf
000001b0: a5e4 4ebf c6c4 31bd 827d b4bf 1965 89bf
000001c0: dcf9 93bf 319d ae3e 3025 7ebf ce23 ddbe
000001d0: 061b 4cbf 61f2 ad3d 8630 e5be 5e1b f9be
000001e0: 9cc3 28be 159b 1fbf 1294 67bf d133 7bbf
000001f0: e8c0 103d c9be 37bf e0f7 4fbf d876 d43d

fc1.weight f4 [96, 128]
-0.059281822 0.029878508 0.060815696 0.01145834 -0.012716878 -0.07061917 0.06789623 -0.07968067
-0.07133858 -0.05735546 -0.0021417781 0.055860396 -0.09197327 0.04866356 -0.01127003 0.00834554
0.022353215 -0.09362947 0.061615653 0.00823106 -0.004630813 0.013871436 -0.08631273 -0.08934897
0.0333002 0.051104154 0.04200053 -0.056542 -0.05380617 0.043160472 0.05597115 -0.060154404
-0.0029121698 0.03336047 -0.06041139 -0.070784464 0.014906206 -0.07128786 -0.041205253 0.031620182
-0.02111017 -0.009582136 -0.10140152 -0.02697269 0.036092084 0.05418829 -0.08404658 -0.036221392
-0.056426 -0.010494279 -0.0268728 0.07164217 0.039918303 0.009219116 -0.03722675 -0.080379985
-0.07248944 -0.05440832 -0.018512623 -0.011686622 0.073711775 0.0044939234 0.014346384 0.052668493
-0.060973756 -0.12280944 -0.08670519 0.034053102 -0.084844954 -0.106428355 0.037098195 0.010845673
0.008386725 0.010270036 0.014680813 0.045355033 0.030489607 0.054801174 -0.008350155 -0.04118686
0.07541836 0.06251243 -0.10118567 0.032901272 0.025615895 -0.06090258 0.018659875 0.045433834
0.065224074 -0.073097296 0.010506277 -0.105168484 -0.0043044533 -0.0039121285 -0.02624421 0.052591734
-0.04137326 -0.014208826 -0.03213092 -0.077900276 0.017331779 0.020472726 -0.023087312 -0.024525793
0.009520478 -0.04676568 -0.0061058663 -0.0026180537 -0.05512745 -0.04031645 0.04538198 -0.050998487
0.05598678 -0.037440833 0.04464398 0.040783234 0.011689295 0.015947774 -0.033672042 0.066109575
-0.07875664 0.0766317 -0.022505308 -0.046930492 -0.058565173 -0.089356266 -0.067249484 0.061781093
-1.0413071 -0.6662047 -0.99252796 1.1139809 0.01747033 0.66676503 -0.36211902 0.06301644
0.19759734 -0.4101343 0.752907 -1.995749 1.4801797 0.17208286 0.035685524 1.194153
0.37302095 1.1121725 1.1847675 0.054611664 -0.34074378 1.851976 -1.6800056 0.99547416
1.0906084 1.385034 -0.47650778 -2.2685318 -3.125143 0.41889322 -1.4804299 -0.09970373
2.6343083 0.45747358 1.310976 0.058857538 0.24980377 1.3427082 -0.22194657 -0.8740892
0.36796626 1.091246 -0.79511315 0.31058624 -1.5328404 0.8690647 -0.6269025 -0.27521127
0.82610786 -0.85201997 2.6241012 0.17103328 0.59029394 -1.0295372 -2.267588 0.9732495
-3.337597 -3.597233 0.2854056 -0.46045148 0.025567904 -0.31150115 -0.13715938 0.24003309
-1.4862865 -1.0495962 0.80607665 1.7585653 -0.09714146 0.6222265 0.77879554 -0.27992275
-0.8434422 0.31355742 -0.33885866 -0.26475102 -0.7224994 -1.9068623 -3.247045 -0.104645275
-0.03129654 0.61932385 -1.3087257 1.0502006 -3.5069993 0.69745004 0.4609376 0.2618086
0.5091579 -0.37136027 -0.06387713 0.10604694 -1.7863866 1.1699824 -0.30228826 -2.5523875
-0.46109498 -0.1353748 -2.2915068 -1.3871506 -1.4266852 -1.088034 -0.07026517 0.14822754
0.2814393 0.83471817 0.7457304 0.32794288 -0.20365933 -0.94866157 -1.1321715 -1.1256872
-0.9903574 0.56790936 -0.34824982 2.0234673 0.8779798 -0.46194384 0.7479261 2.0251908
-0.40665936 1.142126 -1.8098962 -1.1104262 1.9723722 0.46678537 0.5633458 -1.6493808
00000000: 7fd1 72bd c6c3 f43c e119 793d c3bb 3b3c
00000010: 745a 50bc c9a0 90bd 2e0d 8b3d 9e2f a3bd
00000020: f619 92bd 8fed 6abd 135d 0cbb dfcd 643d
00000030: 7b5c bcbd 7153 473d efa5 38bc bbbb 083c
00000040: 171e b73c cfc0 bfbd b260 7c3d 91db 063c
00000050: 13be 97bb 0545 633c bbc4 b0bd 98fc b6bd
00000060: ca65 083d 9752 513d bf08 2c3d 9698 67bd
00000070: dc63 5cbd 09c9 303d 0142 653d 7764 76bd
00000080: 1ada 3ebb fda4 083d ef71 77bd 72f7 90bd
00000090: 2939 743c 5fff 91bd d7c6 28bd 2a84 013d
000000a0: 3cef acbc 64fe 1cbc 9aab cfbd d5f5 dcbc
000000b0: 4bd5 133d 8af4 5d3d 9d20 acbd e25c 14bd
000000c0: f31e 67bd 32f0 2bbc 5924 dcbc 21b9 923d
000000d0: 6081 233d c60b 173c 147b 18bd 439e a4bd
000000e0: 5875 94bd 42db 5ebd c9a7 97bc 3f79 3fbc
000000f0: 33f6 963d c341 933b 190d 6b3c ebba 573d
00000100: 9ebf 79bd 8483 fbbd 7e92 b1bd 447b 0b3d
00000110: 31c3 adbd 1cf7 d9bd 47f4 173d 0db2 313c
00000120: 7968 093c a743 283c cb87 703c 33c6 393d
00000130: 57c5 f93c 3277 603d 17cf 08bc 8eb3 28bd
00000140: f174 9a3d 8406 803d 6f3a cfbd 7cc3 063d
00000150: 6dd8 d13c fc74 79bd 98dc 983c d418 3a3d
00000160: 3394 853d 09b4 95bd 8522 2c3c 9362 d7bd
00000170: 5f0c 8dbb 5031 80bb 19fe d6bc 6e6a 573d
00000180: 0277 29bd 23cc 68bc b69b 03bd 2e8a 9fbd
00000190: 60fb 8d3c 6bb6 a73c 9a21 bdbc 51ea c8bc
000001a0: c7fb 1b3c 5f8d 3fbd b813 c8bb a793 2bbb
000001b0: 52cd 61bd dd22 25bd 74e2 393d cae3 50bd
000001c0: 6552 653d 8f5b 19bd 9bdc 363d 520c 273d
000001d0: 7584 3f3c e8a4 823c b2eb 09bd 7564 873d
000001e0: 294b a1bd 15f1 9c3d 0d5d b8bc 303a 40bd
000001f0: 09e2 6fbd 6b00 b7bd 19ba 89bd 2c0e 7d3d
00000200: 8d49 85bf 648c 2abf 5016 7ebf ed96 8e3f
00000210: f01d 8f3c 1db1 2a3f aa67 b9be c30e 813d
00000220: f556 4a3e 1ffd d1be 83be 403f b474 ffbf
00000230: 8776 bd3f 7d36 303e fc2a 123d 01da 983f
00000240: 9afc be3e ab5b 8e3f 76a6 973f 7bb0 5f3d
00000250: f875 aebe 8d0d ed3f 6c0a d7bf 65d7 7e3f
00000260: 0e99 8b3f cb48 b13f d4f8 f3be a02f 11c0
00000270: 5802 48c0 2c79 d63e ba7e bdbf 7831 ccbd
00000280: 8298 2840 fa39 ea3e 10ce a73f 9a14 713d
00000290: 8fcc 7f3e dddd ab3f f645 63be 4fc4 5fbf
000002a0: 1366 bc3e f3ad 8b3f 898c 4bbf 2905 9f3e
000002b0: 1d34 c4bf 067b 5e3f af7c 20bf 7ee8 8cbe
000002c0: ce7b 533f fb1d 5abf 46f1 2740 5923 2f3e
000002d0: 811d 173f e0c7 83bf 2920 11c0 e126 793f
000002e0: 309b 55c0 1139 66c0 af20 923e 4cc0 ebbe
000002f0: c873 d13c 147d 9fbe 8273 0cbe 3ccb 753e
00000300: a33e bebf 2b59 86bf 0a5b 4e3f ab18 e13f
00000310: 1af2 c6bd 3c4a 1f3f 255f 473f 0952 8fbe
00000320: d4eb 57bf 998a a03e e27e adbe 728d 87be
00000330: b8f5 38bf 1014 f4bf 96cf 4fc0 4350 d6bd
00000340: cd30 00bd 028c 1e3f 5384 a7bf f96c 863f
00000350: ad72 60c0 168c 323f 0300 ec3e c70b 863e
00000360: 2c58 023f ef22 bebe 03d2 82bd 232f d93d
00000370: 51a8 e4bf fcc1 953f 87c5 9abe 515a 23c0
00000380: a414 ecbe b19f 0abe 0ca8 12c0 278e b1bf
00000390: 9f9d b6bf b344 8bbf 2fe7 8fbd f6c8 173e
000003a0: d018 903e 17b0 553f 30e8 3e3f 21e8 a73e
000003b0: 128c 50be 7cdb 72bf ffea 90bf 8516 90bf
000003c0: 1088 7dbf 8262 113f cd4d b2be 7d80 0140
000003d0: 49c3 603f e783 ecbe 1678 3f3f ba9c 0140
000003e0: a835 d0be 2f31 923f aeaa e7bf 7222 8ebf
000003f0: b176 fc3f 7efe ee3e 6e37 103f e91e d3bf

fc1.bias f4 [96]
-0.09008579 -0.03926881 0.044333726 0.082461126 -0.07209556 0.033714015 -0.10157059 -0.10854248
-0.090152346 -0.07637933 0.067529276 0.12065692 -0.039228294 -0.039039407 0.20928344 -0.02687913
0.10890627 -0.09756225 -0.046431854 -0.092033386 0.11148191 0.09442864 -0.14549239 -0.06703593
-0.048477996 -0.1148857 -0.06277685 0.2003335 0.041652173 0.15203579 -0.090088084 -0.13057247
0.19130176 -0.09242718 0.020114103 -0.07422009 0.2084957 0.0112687005 0.06401866 -0.016005281
0.23471576 -0.028020702 0.16488166 -0.10656849 0.09317229 -0.08785488 0.044868182 -0.034307443
-0.04347997 -0.037716012 0.11185147 0.15690736 -0.049493127 -0.04984676 0.08299219 0.3472133
0.020758308 -0.08976729 -0.111255236 0.1569653 0.22951199 -0.089078374 -0.11456964 0.15021491
-0.08223473 -0.05503092 -0.07046478 -0.07339567 -0.18332282 -0.010311513 -0.10407042 0.12931195
-0.057301685 -0.074151635 -0.045341928 -0.07589738 -0.15307015 -0.07495755 -0.016100874 -0.104872435
-0.0064103613 0.1037131 0.1163993 -0.019456664 -0.099947944 0.00095706416 -0.049853772 -0.04505874
-0.026343832 -0.042565703 -0.066777736 -0.06453877 0.07513366 -0.086571544 -0.07823671 0.029849034
00000000: e67e b8bd 55d8 20bd 4897 353d 61e1 a83d
00000010: d6a6 93bd b517 0a3d 3e04 d0bd 854b debd
00000020: cba1 b8bd c46c 9cbd ca4c 8a3d fa1a f73d
00000030: d9ad 20bd c9e7 1fbd 664e 563e 9f31 dcbc
00000040: 400a df3d b8ce c7bd 542f 3ebd 007c bcbd
00000050: a150 e43d ce63 c13d f5fb 14be 224a 89bd
00000060: dd90 46bd 3249 ebbd 2691 80bd 3a24 4d3e
00000070: 789b 2a3d 45af 1b3e 1a80 b8bd cab4 05be
00000080: 9ce4 433e 764a bdbd 55c6 a43c b400 98bd
00000090: e67f 553e 5ba0 383c 371c 833d 821d 83bc
000000a0: 5459 703e ac8b e5bc bdd6 283e 9540 dabd
000000b0: 1dd1 be3d 42ed b3bd b3c7 373d f685 0cbd
000000c0: 0e18 32bd 1b7c 1abd 6212 e53d 53ac 203e
000000d0: 4eb9 4abd 1e2c 4cbd cff7 a93d f1c5 b13e
000000e0: 540d aa3c ead7 b7bd c9d9 e3bd 83bb 203e
000000f0: 3105 6b3e b96e b6bd 7da3 eabd f0d1 193e
00000100: af6a a8bd 1a68 61bd d74f 90bd 7850 96bd
00000110: fab8 3bbe 9ff1 28bc df22 d5bd 5a6a 043e
00000120: 2cb5 6abd d0dc 97bd 75b8 39bd 1670 9bbd
00000130: 6cbe 1cbe 5883 99bd fbe5 83bc 5cc7 d6bd
00000140: 020e d2bb 8967 d43d c262 ee3d 9563 9fbc
00000150: 82b1 ccbd 7de3 7a3a 7833 4cbd 838f 38bd
00000160: 05cf d7bc 6059 2ebd c4c2 88bd e72c 84bd
00000170: addf 993d 6c4c b1bd 913a a0bd f685 f43c

fc2.weight f4 [64, 96]
0.0736234 -1.0222287 -3.954658 -0.6599634 -0.049701042 1.0684981 0.072079614 0.032930605
-0.117337465 0.100928284 -2.3357694 0.40124762 -0.3199923 -0.0785026 -0.12403346 -0.04250075
-0.7588111 -1.1287994 -0.030922096 0.09039103 0.04936373 0.6799405 0.020497443 0.013980786
-0.44468227 -0.06282793 -0.08777466 1.5965015 -0.5395003 -0.3095969 -0.03096256 0.06459438
-0.2797603 -0.07742773 -4.076346 -0.014160996 -0.4001224 0.07071411 0.31149966 0.036173914
-1.9549637 -1.7185339 -0.047518086 -0.10930529 -1.5938245 0.10977921 0.41988954 -0.08145124
-0.113369405 0.08334761 0.23823093 -1.9678797 0.07251853 -0.038065564 -0.8335525 -2.0218363
-0.41839272 -0.027934061 -0.2846504 0.371035 -1.7324346 0.69653934 -0.095268264 -0.47885743
0.036903486 0.69737226 0.0066051832 -0.09814587 -0.02950476 -1.5588373 -0.10865514 -1.7485082
-0.006077356 0.028347086 -0.25913495 -0.030755263 0.13544212 -0.07300622 0.38116533 0.09786554
-0.09339168 0.8329851 1.2619479 0.017946174 -0.052856658 0.006731006 0.03827551 -0.03589407
-0.21357824 -0.04376755 -0.019996664 0.06602111 -0.5608515 -0.098187335 0.08494653 -1.200315
-0.028500281 1.0603738 -1.2147651 0.4589935 0.01787503 -0.3139779 -0.03644158 -0.08138097
0.036353998 -0.0147509705 0.8735461 1.0010484 0.23644967 0.067893066 0.13136254 0.10858154
-2.126181 -0.30960855 0.05009678 -0.03704795 -4.2182546 -0.23190574 0.04463444 -0.07358325
-0.83517164 0.10689206 0.01189539 -0.46850488 0.6824453 -0.13045639 -0.061983563 0.00043055223
-0.86258173 -0.06433727 -3.8239927 -0.028294895 -0.08273214 -0.5288785 0.30513257 -0.025856048
1.8833994 0.09029746 -2.8666341 -0.074794404 1.2442274 -0.038642783 0.76461834 -0.074758135
0.17085695 -0.017019417 0.7738805 2.039517 0.07806267 -0.05141541 0.6683388 2.4986503
-2.9724653 -0.009177666 -0.0018802912 -0.13521297 1.9495003 0.6712757 0.014914338 -1.9467962
0.06561583 -0.011347535 0.038856044 0.06294764 -0.37784043 -1.6448847 0.0028194266 -0.5756788
0.0080489535 0.15605843 -0.7307975 -0.014594415 0.49124 0.032429434 -0.7042164 -0.07580321
-0.087046325 -3.5346665 -1.8218274 0.09645051 0.08638332 -0.009880476 -0.07148863 0.10684467
0.36822167 -0.04468586 0.0965326 0.1041038 -0.041123822 -0.12077058 -0.007827092 0.19741915
0.05104002 0.16738433 -0.45730036 -0.34996977 -0.10350479 1.4957479 0.07524148 0.104492426
0.05636865 -0.00583448 -0.4603135 -0.6668471 0.03152419 0.059347216 0.32067397 0.027104726
0.09755375 -0.13178833 0.05578955 0.061143667 -0.058038943 -0.1883806 0.09805643 -0.08863554
1.3733681 -0.056334805 0.0029530544 -0.4760379 -3.1646483 -0.070876256 -0.02194345 -0.11752584
0.21972635 0.08257211 -0.24904642 -0.044230986 -0.23093057 -1.2273338 -0.9827854 -0.015262674
0.027319733 -0.35539106 0.20804258 0.00062277564 1.339678 -0.16034424 -0.8473799 0.07781909
0.035708986 -0.045579713 0.04205649 -0.6421678 -0.06252096 -0.032309797 -0.43229657 -1.3528898
-0.19586436 -0.11348346 0.11750067 0.15783326 0.26636636 0.9502083 -0.075761534 -0.4962047
00000000: ddc7 963d 64d8 82bf 1e19 7dc0 5df3 28bf
00000010: 5293 4bbd 8cc4 883f 7a9e 933d 3ee2 063d
00000020: a04e f0bd 7db3 ce3d 3f7d 15c0 5470 cd3e
00000030: 08d6 a3be f9c5 a0bd 4105 febd 4415 2ebd
00000040: 7241 42bf 807c 90bf 5650 fdbc ef1e b93d
00000050: 9f31 4a3d 9510 2e3f 41ea a73c ab0f 653c
00000060: 65ad e3be eeab 80bd 33c3 b3bd 295a cc3f
00000070: b11c 0abf 7c83 9ebe 32a5 fdbc 0f4a 843d
00000080: be3c 8fbe 6e92 9ebd 6d71 82c0 8603 68bc
00000090: d8dc ccbe 8fd2 903d e27c 9f3e 192b 143d
000000a0: 403c fabf ebf8 dbbf 53a2 42bd 74db dfbd
000000b0: 7102 ccbf ecd3 e03d c3fb d63e e8cf a6bd
000000c0: 382e e8bd 27b2 aa3d cff2 733e 7be3 fbbf
000000d0: 9884 943d a3ea 1bbd b263 55bf c465 01c0
000000e0: 9237 d6be f9d5 e4bc b2bd 91be 4df8 bd3e
000000f0: 6bc0 ddbf 6750 323f 021c c3bd cd2c f5be
00000100: 1c28 173d fd86 323f 4b70 d83b b400 c9bd
00000110: f7b3 f1bc fb87 c7bf 9686 debd 1ecf dfbf
00000120: 8f24 c7bb 2638 e83c 56ad 84be 76f2 fbbc
00000130: 57b1 0a3e 4984 95bd 1a28 c33e ba6d c83d
00000140: 2344 bfbd 833e 553f 8287 a13f db03 933c
00000150: 3980 58bd c58f dc3b c8c6 1c3d a905 13bd
00000160: 41b4 5abe 9a45 33bd 0bd0 a3bc 1336 873d
00000170: f793 0fbf 7116 c9bd 72f8 ad3d eca3 99bf
00000180: 6c79 e9bc 54ba 873f 6c7d 9bbf 3201 eb3e
00000190: a86e 923c b6c1 a0be c443 15bd 11ab a6bd
000001a0: eee7 143d 0eae 71bc b8a0 5f3f 5b22 803f
000001b0: dd1f 723e 850b 8b3d e783 063e 0060 de3d
000001c0: 5913 08c0 0385 9ebe 4832 4d3d 97bf 17bd
000001d0: f1fb 86c0 b378 6dbe 9ad2 363d d1b2 96bd
000001e0: cfcd 55bf 39ea da3d e2e4 423c dfdf efbe
000001f0: bcb4 2e3f 5c96 05be 7ae2 7dbd bebb e139
00000200: 28d2 5cbf 42c3 83bd 4cbc 74c0 b2ca e7bc
00000210: 786f a9bd 9564 07bf 563a 9c3e 10d0 d3bc
00000220: 3b13 f13f e0ed b83d ef76 37c0 cf2d 99bd
00000230: d842 9f3f e547 1ebd 07be 433f cb1a 99bd
00000240: 20f5 2e3e 4e6c 8bbc 081d 463f 7287 0240
00000250: 52df 9f3d f798 52bd 4018 2b3f e3e9 1f40
00000260: df3c 3ec0 ec5d 16bc 1a74 f6ba 4575 0abe
00000270: 3a89 f93f b9d8 2b3f 445b 743c 9e30 f9bf
00000280: 9861 863d 03eb 39bc 8427 1f3d b1ea 803d
00000290: 4d74 c1be 958b d2bf 21c6 383b b05f 13bf
000002a0: c2df 033c c8cd 1f3e 8c15 3bbf 6a1d 6fbc
000002b0: cf83 fb3e bad4 043d 8747 34bf b73e 9bbd
000002c0: 5845 b2bd fa37 62c0 a431 e9bf d887 c53d
000002d0: bde9 b03d b8e1 21bc a168 92bd 61d1 da3d
000002e0: 8d87 bc3e 8508 37bd e2b2 c53d 6034 d53d
000002f0: 7471 28bd 9156 f7bd 343d 00bc 3f28 4a3e
00000300: 570f 513d cc66 2b3e 4623 eabe 3d2f b3be
00000310: 52fa d3bd ab74 bf3f 3418 9a3d 2000 d63d
00000320: d0e2 663d 2a2f bfbb 36ae ebbe 7eb6 2abf
00000330: 821f 013d 1116 733d 612f a43e bb0a de3c
00000340: 43ca c73d 85f3 06be 9583 643d c871 7a3d
00000350: 3eba 6dbd d8e6 40be cfd1 c83d 8d86 b5bd
00000360: 87ca af3f 53bf 66bd 0888 413b 3dbb f3be
00000370: 9989 4ac0 9227 91bd c0c2 b3bc 63b1 f0bd
00000380: f2ff 603e 911b a93d 0606 7fbe 8d2b 35bd
00000390: 1079 6cbe 4619 9dbf d397 7bbf 4b10 7abc
000003a0: a2cd df3c d1f5 b5be 1d09 553e c441 233a
000003b0: 927a ab3f 4831 24be e4ed 58bf 9d5f 9f3d
000003c0: 9643 123d cbb1 3abd 6d43 2c3d 1c65 24bf
000003d0: fd0a 80bd 4757 04bd fa55 ddbe 7e2b adbf
000003e0: ab90 48be 046a e8bd 31a4 f03d 0b9f 213e
000003f0: 2c61 883e da40 733f dd28 9bbd 8b0e febe

fc2.bias f4 [64]
-0.3504169 1.1007818 0.18936938 0.7785869 -1.0663829 0.81991947 -1.7546761 -0.82842374
0.20588417 0.044293348 0.36128497 -0.6945768 1.301771 0.6350586 -0.19032875 -0.5885428
-0.12065175 0.0542898 0.290293 0.37227792 0.86010444 -0.2509781 0.497333 0.48419225
0.4622998 -0.13631162 -1.3376226 -0.4072768 -0.4620967 -0.21877964 1.0061857 0.3449989
-0.2380727 -0.33227384 1.1262805 -0.3272954 0.1611178 0.7238587 -1.0003589 -0.28608212
-2.8475833 0.9026497 0.7304728 0.27587435 -0.63637906 -0.39946845 -0.5591369 0.32012814
0.19544432 -0.22515269 1.3211192 -0.12403166 0.3018049 -0.25026193 -0.35780296 -0.5760897
-3.469324 -0.41621003 -0.069564104 1.006067 0.21949257 0.53018874 -1.1771618 1.0228134
00000000: d869 b3be 6be6 8c3f 0cea 413e 7951 473f
00000010: 3c7f 88bf 3ee6 513f 3a99 e0bf 9413 54bf
00000020: 4dd3 523e f16c 353d 58fa b83e c9cf 31bf
00000030: 6fa0 a63f 3393 223f 8ae5 42be beaa 16bf
00000040: 4418 f7bd fb5e 5e3d 49a1 943e 369b be3e
00000050: ce2f 5c3f 3480 80be 6ea2 fe3e 0ce8 f73e
00000060: 8fb2 ec3e 4695 0bbe 3837 abbf 9686 d0be
00000070: f097 ecbe c507 60be b1ca 803f b2a3 b03e
00000080: 54c9 73be cc1f aabe f629 903f 4393 a7be
00000090: 11fc 243e ce4e 393f c30b 80bf 5b79 92be
000000a0: ce3e 36c0 0d14 673f 4400 3b3f 673f 8d3e
000000b0: bde9 22bf 2187 ccbe 9923 0fbf d6e7 a33e
000000c0: 8e22 483e 6d8e 66be 6f1a a93f 5004 febd
000000d0: 2c86 9a3e 5522 80be f331 b7be 9d7a 13bf
000000e0: 6809 5ec0 7b19 d5be a077 8ebd cec6 803f
000000f0: a9c2 603e 73ba 073f 3dad 96bf 8deb 823f
