Sign_Language_Classifier.pth (torch, 651376 bytes, 26 tensors)

weight f4 [16, 3, 3, 3]
000000 49 80 1c 3e 8f 9c 32 3e 33 8d 19 bc 52 ad 38 3e
       0.15283312 0.17442535 -0.009372043 0.18034866
000010 cb c9 09 bd c9 0a 6e 3d 63 b7 aa bd 39 4c 00 3e
       -0.03363971 0.058115754 -0.083357595 0.12529077
000020 b7 5a 3a 3e 37 88 22 be e5 b1 1f 3e b0 95 22 3d
       0.18198667 -0.15872274 0.15595205 0.039693534
000030 50 5b 05 3e 08 8f 86 3c 5e a0 b4 3d b5 10 d8 bc
       0.13023114 0.016425624 0.0881965 -0.026375154
000040 6b f7 17 3e 16 d4 b9 3c 3f cf 00 be b6 53 80 3c
       0.14840476 0.022684138 -0.12579058 0.015664916
000050 e0 76 e8 bd b0 b9 6b bd b1 d1 e9 bd 82 b3 b8 3d
       -0.113507986 -0.057550132 -0.114169486 0.090186134
000060 39 8c 35 be df a2 f1 bd 7f 5b c3 bd d8 8c 09 be
       -0.17729272 -0.11798643 -0.09538936 -0.13432634
000070 1a 53 ae bb 32 f4 63 be 43 ac 3e 3e 0f 62 20 be
       -0.005319965 -0.22261122 0.186204 -0.15662406
000080 07 47 15 3e fc f0 8c 3d 9f 89 f8 bc b0 58 12 3e
       0.14577876 0.068819016 -0.03033906 0.14291644
000090 b6 c6 c7 3c f4 c1 0e 3e f2 72 0c bc 90 c8 0a bd
       0.024386745 0.13941175 -0.008572327 -0.033882678
0000a0 b4 2b 8b 3d 4d 00 52 bd f7 e7 05 3e a6 c4 58 3e
       0.06795445 -0.051269818 0.13076769 0.21168765
0000b0 2a 51 0d 3e d1 41 f3 bd 8f f3 82 3d ae 40 ec bc
       0.13800493 -0.11877788 0.06394111 -0.028839435
0000c0 b7 f9 ca 3d 58 e7 04 be 17 13 62 be ab 3f 30 bd
       0.099109106 -0.12978876 -0.22077595 -0.04302947
0000d0 c9 ae 05 be bd cf 22 3e 69 d4 2a 3d 66 d2 70 3d
       -0.13054956 0.15899558 0.041706476 0.0587944
0000e0 07 98 33 3d dd 79 c3 3c ca b2 34 3e 0c 7d d2 bd
       0.043846156 0.02386182 0.17646328 -0.10277757
0000f0 5a 2c 63 3d 6a 0a ac bd 29 ac ed 3d 2f c5 bb bd
       0.05546222 -0.08400424 0.116051026 -0.09168469
000100 79 c1 b7 3c 88 b0 9d bd 33 6c 39 3e 82 da c7 bd
       0.022431122 -0.07699686 0.18107681 -0.09758474
000110 f2 be c1 bd 98 7b 87 bd 2b ab 63 3e e8 cd f2 3d
       -0.09460248 -0.066153705 0.22233264 0.1185568
000120 11 db 02 3e 73 3e 6c be b3 99 88 be 49 96 2c be
       0.1277888 -0.23070697 -0.26679763 -0.16854204
000130 80 a7 20 be 7e 43 4b 3d 46 96 9e 3d 51 6a 28 3e
       -0.15688896 0.049624912 0.07743506 0.16446806
000140 dc 85 c1 bd 21 6a a5 bd a1 b6 20 3e da 68 ae bc
       -0.0944936 -0.08076883 0.15694667 -0.021290231
000150 48 4f 26 3e 06 76 2e 3c ce 0e 2d 3e 2c 64 b9 bd
       0.16241181 0.010648256 0.16900179 -0.090523094
000160 f2 52 bc bc 3f ae 0a 3e f9 59 1f 3d 8f 8d 34 bd
       -0.02298877 0.13543032 0.038904164 -0.044080313
000170 71 91 f9 3d 7f f6 f9 3d a8 b7 09 be 45 04 c0 bd
       0.12185944 0.122052185 -0.13448966 -0.09375814
000180 82 01 36 3e f4 57 38 bd 5a 87 33 bd 31 2c 44 be
       0.17774013 -0.045005754 -0.043830253 -0.19157483
000190 c6 a7 de bd d1 13 49 3d e8 b8 09 bd 2d 0c 09 be
       -0.10871844 0.049091164 -0.033623606 -0.13383551
0001a0 eb 15 3c 3c 61 85 05 be d2 99 12 be bd 62 ab bd
       0.011479835 -0.13039161 -0.1431649 -0.08368442
0001b0 42 24 fd bd 9a 9a c3 bd 27 98 42 3e b5 db aa 3d
       -0.12360431 -0.09550972 0.19003354 0.08342687
0001c0 f1 0e bb 3d 00 a8 2f be da f6 95 bd 31 5a cc bc
       0.09133709 -0.1715393 -0.07322474 -0.02494535
0001d0 49 51 41 3d 37 e8 11 be b1 63 8c bd b5 34 02 be
       0.04719666 -0.14248739 -0.06854952 -0.12715419
0001e0 bd fb 00 3d 74 4e 4e bd 20 e1 6b bc 5f 82 c5 bd
       0.031490076 -0.050367787 -0.014396936 -0.09644007
0001f0 2e 36 db bd 9b a5 db bd b1 c0 05 bd 35 06 07 be
       -0.10703693 -0.10724946 -0.032654468 -0.13185962
000200 f5 95 21 3e e1 29 91 3a 79 1e 46 3e 5f 61 8d 3d
       0.1577986 0.0011075103 0.19347562 0.06903338
000210 f2 e7 eb bd 5d 86 2e 3e f5 2a 03 bd 80 bd d4 bd
       -0.115188494 0.17043443 -0.03202339 -0.10387707
000220 fd 0d 48 be 49 96 73 be 28 06 3a 3d a3 6e 5d bd
       -0.19536586 -0.23787798 0.045416027 -0.05406059
000230 6e a8 52 3d ae 7d 1b be b0 b7 18 3e 49 48 16 be
       0.05143016 -0.15184662 0.14913821 -0.14676012
000240 64 c5 f7 bc 88 6e 0d 3d 61 f2 9e 3d 1d 53 3d 3e
       -0.03024549 0.03452924 0.07761074 0.18488736
000250 4c 8c 4d 3e bf 69 12 be 80 df c5 3d 19 3f 11 bd
       0.2007305 -0.14298151 0.0966177 -0.035460565
000260 da 10 2d 3c a9 ec 28 be 79 04 11 3e c8 23 47 be
       0.0105631 -0.16496529 0.14161862 -0.19447243
000270 00 e0 d4 3d e0 be 76 3d 2c 3d 13 3d 12 7c be bd
       0.10394287 0.060240626 0.03594701 -0.09301008
000280 ce cf 38 3e 58 2c ee 3c 9a 78 8b 3c 6b dd 3c be
       0.18048021 0.02907388 0.01702528 -0.18443839
000290 f8 1e 59 3d 67 80 34 bd 80 9a e5 bd b1 fa 06 3e
       0.05300805 -0.044067767 -0.11211109 0.13181569
0002a0 a0 7d ed 3c 44 dd 04 be 23 ab 00 be 3c 38 7e bc
       0.028990567 -0.12975031 -0.12565283 -0.015516337
0002b0 8b 71 c1 3d 14 8e 96 bd c6 fb f4 bd b0 cd aa bd
       0.09445485 -0.07351318 -0.119620845 -0.08340013
0002c0 ec ab 2c be 5a 31 80 3d a7 2d 0a 3e 6f 88 4a be
       -0.16862458 0.06259413 0.13493977 -0.19778608
0002d0 ae ee a4 3d 55 5d 03 3e a1 a7 5b 3d aa 99 10 bd
       0.08053337 0.12828572 0.05362666 -0.035302795
0002e0 0c fa ff 3d cc 86 f3 3d 4f bf f2 3d d8 25 99 3b
       0.124988645 0.11890945 0.118528955 0.004673701
0002f0 15 b4 6f bc 4e 84 03 3d b0 1e 07 bd 67 93 44 bd
       -0.014630337 0.032108597 -0.03298825 -0.047992136
000300 ed ce 15 3e 9d 19 36 3e 0a 04 90 39 ca 8c 50 bc
       0.14629717 0.17783208 0.0002746883 -0.012728879
000310 83 ee 9b 3c 62 5c 1f 3c 74 81 ce 3c 5a 29 91 3c
       0.01903463 0.009726616 0.025208212 0.017719913
000320 3a 14 55 be b9 02 ac bd e1 16 0a 3e 6f 17 4c 3d
       -0.20808497 -0.08398957 0.1348529 0.049827036
000330 aa fa d8 bc 00 e6 18 be 6e 7d 19 be fa 88 1d be
       -0.026486713 -0.14931488 -0.14989254 -0.15384284
000340 5a 5d 7b bd 62 25 89 3d 13 70 1f 3e e1 50 d8 3d
       -0.061368324 0.06696583 0.15570097 0.105623014
000350 97 a9 1d be 31 2e a5 bd 1a c7 61 bc 60 69 4d 3e
       -0.15396725 -0.08065451 -0.01378038 0.20059729
000360 c1 44 b1 3d 86 a9 85 3c 8b 08 14 3e b1 18 a3 bd
       0.08655692 0.016316187 0.14456384 -0.07963694
000370 1f d3 01 be 40 65 0c 3e d2 d6 6d bd 81 8e ff bb
       -0.12678193 0.13710499 -0.058066197 -0.00779897
000380 6b 0c 24 be 20 5b 45 3e 73 5d 5d 3e 7a 94 0d 3e
       -0.16020362 0.19273043 0.2161768 0.1382617
000390 dd c7 0b be 52 b8 41 be 1d 94 21 be bb 87 2f 3e
       -0.1365046 -0.18917969 -0.15779157 0.17141621
0003a0 7c 92 f6 3d 18 19 42 3e be 9e a0 3d 1e 24 0b 3d
       0.120396584 0.18954885 0.07842778 0.03396999
0003b0 6f 60 91 bc 68 84 5a be 19 bf 68 be 48 8e 79 be
       -0.017746178 -0.21339571 -0.22729148 -0.24370682
0003c0 bf 52 b3 3d 38 7c ac bd 66 6b e6 bc 3f 90 a1 bd
       0.08756017 -0.0842213 -0.028127383 -0.07888841
0003d0 30 57 11 bc 82 02 d1 bd 96 7e d5 bd 50 13 a9 3d
       -0.008870885 -0.102055565 -0.10424535 0.08255637
0003e0 2f c2 de bc 27 63 fa 3d 08 de 6e bd ac 5f fe bd
       -0.027192203 0.12225943 -0.058317214 -0.12420592
0003f0 24 9c cc ba b6 b3 93 bd d5 22 0d bd 23 a8 27 be
       -0.0015610498 -0.072120115 -0.034457047 -0.16372733

bias f4 [16]
000000 b8 af b3 bd bf 8a c1 3c 51 57 2e be a1 5b e6 3d
       -0.0877375 0.02362573 -0.17025496 0.112479456
000010 90 66 35 be 81 cd b7 bd 79 ef cb bd ce 45 6b 3b
       -0.17714906 -0.08974744 -0.09957785 0.003589976
000020 c2 7c 6f bd 7f 07 e0 3d c9 28 f9 3c 3a 66 ae 3d
       -0.058468588 0.1093893 0.030414956 0.08515592
000030 0e 8e a5 3d 80 f3 ee bd 86 5d 79 be 80 85 b0 3d
       0.080837354 -0.11667538 -0.24352083 0.08619213

weight f4 [32, 16, 5, 5]
000000 32 7c eb 3c 94 11 47 bd 58 00 73 bc a6 cd 7d bd
       0.028745744 -0.04860075 -0.014831625 -0.0619637
000010 73 e6 5a bd 53 f7 a1 3a 4a 22 70 3b 0c 93 f1 ba
       -0.05344243 0.0012357034 0.0036641532 -0.0018430664
000020 ef 99 e5 bc 0b 1f ff 3c 2e 7c 36 3b 8a 35 18 bd
       -0.028027503 0.031142732 0.0027845013 -0.037160434
000030 c2 86 59 bc bf ef 04 37 68 fd ce 3b 8e ed 05 bd
       -0.013276758 7.923633e-06 0.0063168295 -0.032697253
000040 a7 7b 93 3c b1 66 e0 bc e1 b9 3d bd fc 28 fe bc
       0.018003298 -0.027392717 -0.046319846 -0.031025402
000050 b9 81 54 3d 4c f9 32 3d 08 3f 37 3d 3d cf e5 3c
       0.051881526 0.04369478 0.044737846 0.02805292
000060 eb ca 17 3d 3c b4 d2 bb 20 de d5 bc 60 4e d8 3c
       0.037058752 -0.006430177 -0.026106894 0.02640456
000070 ab 91 ce bc da 02 16 bd fe c8 71 bc 39 81 3d 3c
       -0.025215944 -0.036623813 -0.014757393 0.011566454
000080 df c1 d7 3c 90 db a5 bc 58 e9 04 bd d0 0b 79 3c
       0.026337562 -0.020246297 -0.032449096 0.01520057
000090 ec bc ae bc 43 f2 c3 bc e0 52 06 3d 06 1a 5c bb
       -0.02133032 -0.02391923 0.03279388 -0.0033584847
0000a0 c1 42 6a 3d e0 5b 72 3d 18 b7 da 3c d8 ea f1 3c
       0.057192568 0.05916965 0.026698634 0.029530928
0000b0 ce 93 b3 3c 70 2d 80 3c fd 91 07 3c 42 ca 52 3c
       0.021921065 0.015646666 0.008274552 0.012865605
0000c0 fa 9b fb 3c ef 5c 6c 3d 40 ce 5a bb cf 2b 3f bc
       0.030714024 0.057705816 -0.0033387095 -0.01166816
0000d0 49 40 8c bb 68 d2 84 bc 33 c3 7d 3c 3a 6b 39 3d
       -0.0042801243 -0.01621361 0.015488434 0.045268275
0000e0 2f 14 43 3d b6 53 fd 3c c4 3f fb bc db 2a a9 bc
       0.04762667 0.030923706 -0.030670054 -0.020650318
0000f0 f9 80 25 bb 26 7a ce 3a d0 a6 84 3c 8b 4e 0f bd
       -0.0025253876 0.0015752956 0.016192824 -0.034987014
000100 b0 41 cd 3c e5 10 0c bd 57 ad d3 bc 07 04 0f bd
       0.025055736 -0.0341958 -0.02583949 -0.03491595
000110 fb 24 50 3d 06 82 22 bd 16 9c 1d 3d ae 4e f8 38
       0.050816517 -0.03967478 0.038478933 0.00011840217
000120 5e b4 55 bb dd 50 09 3d d1 1e 25 bb 80 d8 31 3d
       -0.0032608728 0.033524383 -0.002519537 0.04341936
000130 e0 c6 43 3d 27 fc 01 bd 4c f8 f3 3c 1f 33 9d 3c
       0.047797084 -0.03173461 0.029781483 0.019189415
000140 44 e6 8e 3c 98 7e 62 3c 6c 35 ac 3c 7c 3e 8b bc
       0.017443784 0.013824128 0.021021567 -0.016997568
000150 5e c1 ad ba 87 06 4e 3d d5 1d 18 3d c4 9c 15 3b
       -0.001325648 0.050299194 0.037137825 0.0022829035
000160 7c 38 33 bd 34 72 40 3b 10 6c 06 bd 7a 36 2a 3d
       -0.04375504 0.0029364945 -0.0328179 0.04155586
000170 96 15 f8 bc 42 52 b4 bb ae bd 78 bc 8a b7 9c 3b
       -0.03028373 -0.00550297 -0.015181942 0.0047826217
000180 71 88 2b 3d 8d 13 31 bb 9d 0e a8 3c a6 13 f8 3c
       0.041878168 -0.002701971 0.02051478 0.030282807
000190 23 de 30 3d d2 27 3a bc 15 e0 f8 bb e2 78 d9 3c
       0.043180596 -0.011362033 -0.007595072 0.0265469
0001a0 da 50 4c bc 3a 04 da 3c d2 c9 8b bb de a4 e7 bc
       -0.012470448 0.026613344 -0.004266002 -0.028276857
0001b0 e2 de d3 3c ab 1b 39 3c 70 3d bf 3c 10 b9 5d 3d
       0.025863115 0.0112981 0.023344725 0.054131567
0001c0 21 18 20 3d ae 1a 53 3d a4 24 c4 3b f7 61 24 bd
       0.03908551 0.051539116 0.005985813 -0.04013249
0001d0 6f 06 ea bc 6a 24 cd bc fe bd 22 bd c8 2e ac bc
       -0.02856752 -0.025041778 -0.039731972 -0.0210184
0001e0 f6 5c 23 bd 03 63 14 bd 1c df b0 bc 7e 3d 2e bd
       -0.039883576 -0.036227237 -0.021590762 -0.042539112
0001f0 89 6c c7 bc 0f e8 a4 3c 97 72 2e 3d 6c 51 68 bc
       -0.024343746 0.020130185 0.04258975 -0.014179569
000200 72 32 3f bc 98 32 ed 3c 88 be b5 bc 6a ad ad bc
       -0.011669742 0.028954789 -0.022185579 -0.021200854
000210 73 cf 03 3d 53 f8 29 bd 66 2b 1b 3c 7a 32 40 3d
       0.03218026 -0.041496586 0.009470796 0.04692314
000220 7c 81 31 3c 72 9d 88 3c 3e 0d cb bc 1a 15 5b 3b
       0.010834094 0.016676638 -0.024786588 0.0033429326
000230 45 e1 7e 3b 91 bf 50 3c f6 0e a6 3c b1 38 40 3d
       0.0038891595 0.0127409855 0.020270806 0.046929065
000240 3d ae 0a bd 02 77 7f 3b 73 76 bc bc ee 7d 1c bd
       -0.033857573 0.0038980846 -0.0230057 -0.038206033
000250 12 4c d8 ba 04 42 28 bd 75 4a 09 3d 1c 12 91 3b
       -0.0016502163 -0.041078582 0.033518273 0.0044272076
000260 7b 72 e8 bc 7e 83 c8 3c d6 43 41 bd c1 e4 a5 bc
       -0.028374901 0.024476763 -0.047183834 -0.02025068
000270 4f c5 2c bc 59 76 31 bd 58 81 03 bd 6a e0 07 bc
       -0.010545089 -0.043325756 -0.032105774 -0.008293251
000280 7a 4a 11 3d ec 22 3c 3d 49 b7 ed 3c 08 0a f8 bc
       0.035471417 0.04593174 0.029018061 -0.03027822
000290 f4 b0 04 bd 9e 8f 2a 3d 1a dd 72 3c 92 f7 c7 ba
       -0.03239532 0.04164087 0.0148232225 -0.0015256277
0002a0 40 68 bd 3b 74 47 28 bd f5 73 71 bc cd e2 4e 3d
       0.00578025 -0.041083768 -0.014737119 0.050509263
0002b0 26 18 20 bc 27 00 df b9 8a a0 25 bd d5 23 de bc
       -0.009771382 -0.00042533988 -0.040436305 -0.027116695
0002c0 20 04 f1 ba 41 a5 04 bd 19 81 ce bb fe b6 9d 3c
       -0.001838807 -0.03238416 -0.0063020107 0.019252297
0002d0 83 d6 3f bd 0b 59 86 3c d4 5e 04 bd db 3d c1 bc
       -0.046835434 0.01639988 -0.032316998 -0.023589065
0002e0 59 a3 b1 3c 25 3a 2a 3d 86 54 3b bc 25 6d 97 bc
       0.021684336 0.041559357 -0.011433726 -0.018484661
0002f0 59 bd 31 bd 7e 8d ba bc 18 a3 26 bd ec b2 ea bb
       -0.043393467 -0.022772547 -0.040682882 -0.0071624424
000300 48 3a 6f 3c 0a ce 2b bd 1a 23 45 3d 1e c0 07 3d
       0.014601298 -0.04194454 0.04812918 0.0331422
000310 3e 10 40 bd 6f 0a b5 bc 8b a2 99 3c 2f b9 02 bc
       -0.04689049 -0.022099702 0.018754264 -0.0079787215
000320 34 23 55 bb e1 8f 9f bc f7 d4 35 3d 24 96 be bc
       -0.0032522203 -0.019477786 0.044392552 -0.023264952
000330 c1 d3 3a 3d 50 fa 32 ba 18 cd f5 3b 36 26 1b 3d
       0.0456121 -0.00068274606 0.0075012557 0.037878238
000340 08 c5 10 bc 95 cc ed bc 54 1b 45 bc 81 c7 18 3d
       -0.008836038 -0.029028216 -0.012030441 0.037299637
000350 88 66 23 bd ae 82 18 3c 68 e0 4d bd 17 b9 aa 3c
       -0.039892703 0.0093085 -0.05026284 0.02084021
000360 9e 80 5b 3c f0 13 ff ba bc d9 95 3c dd e8 10 bb
       0.013397364 -0.0019460898 0.0182923 -0.0022111454
000370 54 e6 c2 3c 84 f3 2f bd 16 d7 19 bc a9 f6 ae 3c
       0.02379147 -0.042956844 -0.009389659 0.021357851
000380 87 ae 48 3d 88 48 ce 3c 1b 38 15 bd d9 85 1d 3d
       0.048994567 0.02518107 -0.03643046 0.038457725
000390 7e 76 23 bc 94 d7 14 bc b4 01 4d bd e9 bf 33 bc
       -0.009976981 -0.009084601 -0.050050452 -0.010971048
0003a0 11 c4 02 3d 30 f2 87 3b a2 95 f9 bc e4 0f 00 3c
       0.031925265 0.004148744 -0.030466858 0.007816289
0003b0 52 9b b7 bc 0d 60 22 3d d2 0e 46 bd 49 44 a6 bc
       -0.02241293 0.039642382 -0.048353978 -0.020296233
0003c0 2e be 75 bd 17 85 01 bd 08 b3 5e 3b 3d 63 16 3d
       -0.059995823 -0.031621065 0.0033981223 0.036715735
0003d0 f1 74 02 bb d8 fd 15 3d 87 3d 37 bb 4e b9 81 3c
       -0.0019906128 0.036619037 -0.0027960257 0.01583543
0003e0 99 09 e4 3c 4c 04 f7 3c ad 48 a6 bc 8e b6 50 3d
       0.027836608 0.030153416 -0.020298326 0.050955348
0003f0 c7 37 05 3d 51 14 b5 bc 87 3e b4 bc fc f3 12 bd
       0.032523897 -0.022104414 -0.022002472 -0.035877213

bias f4 [32]
000000 4c d7 07 38 85 64 49 bd d2 29 38 3d a5 f3 04 bd
       3.238702e-05 -0.04916813 0.044961758 -0.03245892
000010 23 bc f9 3c 57 34 f2 bc 52 b9 49 bc fe fd 9a ba
       0.030485218 -0.029565973 -0.01231225 -0.0011824963
000020 17 71 a1 bc 63 73 b1 bc f7 62 2c bd f7 a9 0c bd
       -0.019707246 -0.021661466 -0.042086568 -0.03434178
000030 2a bf 19 bb bd 78 6f bc 0b 17 e6 bb 5b fa 50 3c
       -0.002345989 -0.014616189 -0.00702179 0.012755002
000040 32 0b d2 bb 20 df 41 bd 97 a4 96 bc cd bd 7a 3c
       -0.006410026 -0.04733193 -0.01838903 0.015304041
000050 50 6a 93 3c 7d 35 c6 3c 8d 75 35 3b 73 04 0c 3d
       0.01799503 0.024195427 0.0027688474 0.03418393
000060 9b 25 0c bd 37 de 2b bd 74 6b 5a bc 8c c9 b0 39
       -0.03421555 -0.041959967 -0.013331283 0.000337195
000070 0d b3 14 3d 4c 36 ec bc d5 6e 0f bd b1 4d b1 ba
       0.03630357 -0.028834485 -0.035017807 -0.0013527182

weight f4 [64, 32, 5, 5]
000000 47 28 02 3c 57 89 07 bd 7d 1a 78 bc 64 00 f7 bc
       0.007944173 -0.03308996 -0.015143034 -0.030151553
000010 64 84 cb 3b f2 57 d2 3a 57 7c 07 bd f8 94 ce bc
       0.0062108506 0.0016047938 -0.033077564 -0.025217518
000020 46 ba 23 bb 40 6b 51 bc e3 55 f0 bc c3 69 4e bc
       -0.0024982854 -0.012781918 -0.029337829 -0.012598458
000030 f0 f3 0d bd 82 d9 fa bb 34 4d f2 bb 65 61 56 b9
       -0.034656465 -0.0076553235 -0.0073944572 -0.00020444913
000040 6c f7 83 3a c3 ec 18 bc c8 26 c3 3c 86 4a 82 bc
       0.0010068244 -0.009333792 0.023822203 -0.015904676
000050 79 a4 4f 3c 24 de 2a 3c 24 83 08 bc 9c 53 ff bc
       0.012673491 0.010428939 -0.008332048 -0.031167798
000060 d9 dd 09 bd 4a 1c 8d 3b c4 2d 95 3b 90 90 73 3c
       -0.033658836 0.004306351 0.004552575 0.014866009
000070 00 62 a1 bc 60 d6 d4 3c 0e 08 ea 3c bf b0 48 bc
       -0.01970005 0.025981128 0.028568294 -0.012249171
000080 19 24 ab bc c3 96 83 bc 41 a2 06 bd 3d 22 4f 3c
       -0.020891236 -0.0160631 -0.03286958 0.01264244
000090 80 56 82 bb 38 3b 09 3c a3 8a 7f 3c 84 1d 9c bc
       -0.0039775968 0.008375935 0.015597018 -0.019057043
0000a0 d4 e7 c2 bb f1 11 b2 3c 7f 81 0a bd e4 9b ca 3c
       -0.005948046 0.02173707 -0.033814903 0.024732538
0000b0 2d a0 5c 3c e2 da 79 bc b6 bb 07 bd 5e 56 52 3c
       0.013465923 -0.01524994 -0.033138 0.012837974
0000c0 1e c7 2d 3c f6 e1 af bc 78 6e b9 3c 9d b7 b1 3b
       0.010606555 -0.021470051 0.022635683 0.0054234997
0000d0 03 87 dc 3c 1f f4 81 3c 5e 89 49 3c 56 da e5 bc
       0.026919847 0.015863476 0.012300817 -0.028058212
0000e0 40 67 d5 3c 89 32 c7 3c 6f cb 7c bc a6 e3 df 3b
       0.02605021 0.02431609 -0.015429362 0.0068325577
0000f0 fa 0f ae 3b d0 78 c8 b9 56 38 85 3c 11 7a 0c bb
       0.005311963 -0.00038236985 0.016262215 -0.0021435062
000100 e3 f0 ac bc 37 44 94 3c df 69 8b bc f8 a2 12 3c
       -0.021110957 0.018098934 -0.017018257 0.008949988
000110 cb 17 0c 3c 1d 0d 32 bc 3a 56 f9 3c 7b 92 da 3b
       0.008550595 -0.010867384 0.030436624 0.006670294
000120 1e 09 98 bc 82 82 c9 3c 15 94 da 3c 1d d2 e0 3c
       -0.018559035 0.024598364 0.02668194 0.02744394
000130 5c 42 c8 bc ca 53 cf bc 04 bb b9 bc eb 0e 0c 3d
       -0.024445705 -0.025308508 -0.022672184 0.034193914
000140 bf 1a d1 3c 4f 61 7f bc 31 01 c3 3c 48 7f ae 3c
       0.025525449 -0.015587165 0.023804279 0.021300927
000150 7d 39 e9 37 f0 b9 d7 3b 29 42 78 bc e0 1e 9f ba
       2.7802535e-05 0.006583445 -0.015152493 -0.0012139939
000160 d4 ce c6 3c 76 95 81 3c dd 94 ac bc 9c 45 4e 3c
       0.024268545 0.015818339 -0.021067077 0.012589838
000170 9a 9d 7f bb 36 9d b1 bc e3 ba d0 bc 99 04 f9 3b
       -0.003900385 -0.02168141 -0.02547974 0.007599425
000180 73 14 b9 bc b7 93 a1 bc 91 41 42 3c 1e 24 0c 3c
       -0.022592759 -0.019723756 0.011856453 0.008553533
000190 61 8f 6c bc ee eb 29 3c c5 92 ce 3c 45 f5 9e bb
       -0.014438481 0.010371191 0.02521647 -0.0048510158
0001a0 78 50 60 bb 38 e5 eb 3b 0a 13 54 3c 89 e8 8f 3c
       -0.003422765 0.007198956 0.012943992 0.017566936
0001b0 22 f6 f6 3c 36 9c 38 3b 51 93 4e 3c 02 97 76 bc
       0.030146662 0.002816928 0.012608365 -0.0150506515
0001c0 3a a3 8d 3a 14 b3 05 3d 53 ed f1 bc d3 da b4 bc
       0.0010806092 0.032641485 -0.02953211 -0.022077
0001d0 c9 62 d8 bc 64 8d 05 3d e5 61 4d 3a 73 6a 14 3d
       -0.026414292 0.032605544 0.0007834717 0.03623433
0001e0 83 e9 8d bc 73 db f1 bb 2e 84 c4 3c 5d 09 05 bd
       -0.017323261 -0.0073808967 0.02398881 -0.032479633
0001f0 f9 9d 04 bd d1 52 9c bc 28 ee f6 3b 6b 71 c6 bc
       -0.032377217 -0.019082459 0.0075357147 -0.024224004
000200 e7 74 6a 3c 3d 28 24 3d d1 3e 35 bb bf e0 b6 ba
       0.014310098 0.040077437 -0.002765585 -0.0013952478
000210 5d 64 cb bc c9 22 87 ba 95 d9 2e 3c 43 f9 32 3c
       -0.02482813 -0.0010310049 0.010671993 0.010923686
000220 18 87 e5 bb c8 35 88 bc af 9e 44 bc 35 59 01 3d
       -0.00700463 -0.016627207 -0.012000724 0.031579215
000230 29 0a 8a bc 9c d5 ca 3b ac ed 00 bb b2 19 0a bc
       -0.016850548 0.006190015 -0.0019672913 -0.008428978
000240 77 8b a7 3b c2 1d e6 3c b2 7c e5 3c 39 c0 b2 bb
       0.005113061 0.028090362 0.02801356 -0.0054550436
000250 14 91 42 bb b4 bc 6a bc cf 7c 99 bc e3 72 1b bc
       -0.0029688524 -0.014327217 -0.018736271 -0.00948784
000260 e1 63 ac 3c d2 cc 59 3b 22 9c fd bc e7 d8 3b bc
       0.02104372 0.0033233655 -0.030958239 -0.011465288
000270 92 22 06 bd d3 b6 f8 3c 7a 5e 38 3a 07 6b 38 bc
       -0.032747813 0.030360615 0.0007033121 -0.011255986
000280 07 bd 22 3c 8a 0d 1a bd 0c 5c 73 bc d2 3c 87 ba
       0.009932763 -0.037610568 -0.014853489 -0.0010317808
000290 b0 ff b1 3c d0 27 ba 3c 5a f0 ca bb dc 4f 1e bd
       0.021728367 0.022724062 -0.006193203 -0.03865038
0002a0 24 4a e7 3a 8b 04 bf bc 31 a9 bf 3c ea 87 79 bc
       0.0017645997 -0.023317596 0.023396106 -0.015230158
0002b0 92 72 63 bc 84 60 33 bc 52 dc e3 3c d8 ac 6f 3c
       -0.013882296 -0.010948304 0.027815018 0.0146286115
0002c0 c7 24 c3 bc bc c7 c4 3b cc 20 06 3c 59 c0 73 bc
       -0.023821248 0.0060052555 0.00818653 -0.014877402
0002d0 5e 4f 5a 3c 66 a2 f4 bc 82 75 92 bc c9 1e 9c 3c
       0.013324587 -0.029862594 -0.017878298 0.019057648
0002e0 12 0f dd 3c 01 d2 43 3c a5 1e 9b bc a7 7c 56 3c
       0.026984725 0.011951924 -0.01893551 0.013091243
0002f0 03 83 bb bc 9e b7 0e bd 79 45 b6 bc 60 e0 1a bb
       -0.02288962 -0.03484308 -0.022249924 -0.0023632273
000300 42 23 0c 3c 84 c3 ca 39 90 26 d8 3c 1c 20 0b bb
       0.008553328 0.00038674113 0.026385576 -0.0021228855
000310 2b 12 0b 3d 31 8f c6 bc 1f a5 a4 bc 89 08 4e bb
       0.033952873 -0.0242382 -0.020098267 -0.0031438193
000320 64 2f ca 3c bf a3 48 3c 5f 8a 06 3d 7d 53 a2 bc
       0.0246808 0.012246071 0.032846805 -0.019815201
000330 db e9 fd 3c 7a 9c 68 3c 56 b4 1a 3c ce d3 a1 bb
       0.0309953 0.014197463 0.0094424095 -0.004938579
000340 ed 5d d1 bc 1b 3d 88 3c 7f 7c 3e 3c 2b 5d d7 3c
       -0.025557483 0.0166307 0.011626362 0.026289543
000350 34 97 be 3c 1d 60 e9 bc b1 1d 01 3d 1c 22 5f bb
       0.023265459 -0.028488213 0.031522457 -0.003404743
000360 7a bb af bc c0 c3 ea 3c b4 45 e3 bb 0b 20 3f 3b
       -0.0214517 0.028657794 -0.0069357995 0.0029163386
000370 73 4c 21 3c c2 c9 8d bc 0f fe 98 3c 88 f3 21 3c
       0.009844887 -0.01730812 0.018675832 0.0098847225
000380 01 69 ce 3c 8a 5f 0e bc 5c 1a d9 bc 71 12 b5 3b
       0.025196554 -0.0086897705 -0.026501827 0.00552588
000390 49 c6 12 bc bb 08 8b 3a 40 8e de bc 33 d0 04 3d
       -0.008958408 0.001060746 -0.02716744 0.032425117
0003a0 48 98 96 bc d4 d2 73 bb 48 ce 8a 3a 51 76 61 bc
       -0.01838316 -0.003720452 0.0010590041 -0.013761119
0003b0 f8 2f b4 3c ac f0 e9 bc 82 f2 cc bb 72 fc c5 bc
       0.02199553 -0.028557144 -0.006254495 -0.024168227
0003c0 8f 88 b7 3c 09 41 cd bc be a2 e2 3c 6c a4 01 bd
       0.022403983 -0.025055425 0.027665492 -0.031650946
0003d0 85 c8 16 bd a0 87 1a 3b 31 1a 0d bd 3d 0f 05 3d
       -0.036812324 0.0023579374 -0.034448806 0.032485235
0003e0 12 64 02 3d 5b 42 8c bc 3c 52 de 3c 68 fd 3e bc
       0.031833716 -0.017121485 0.027138822 -0.011657096
0003f0 58 15 3b 3c c4 25 b7 bc 5e dc d9 3a 3a ba 24 bc
       0.011418663 -0.022356875 0.0016621461 -0.0100541655

bias f4 [64]
000000 d3 e6 05 bd 1b 89 30 bc 72 a6 2b 3c 9e 2b e8 3b
       -0.032690834 -0.010774876 0.010476695 0.0070852777
000010 cf d4 b1 bb ce cf 68 bc 5e d3 d6 39 22 1e 82 bc
       -0.00542698 -0.014209701 0.00040974742 -0.01588351
000020 3f d4 08 bd 77 50 b0 bc df 82 de bc 61 91 7d 3c
       -0.03340554 -0.021522744 -0.027162014 0.015476556
000030 ec b3 67 3c 9c 28 9d 3b a7 b1 17 3c 72 bb ed bc
       0.014142018 0.004796101 0.009258664 -0.029020045
000040 1d c6 b9 3c 83 fb d6 bc 49 2e c7 3c ff 3f df bc
       0.022677476 -0.026242977 0.024314063 -0.027252195
000050 8a cb 86 3c 7e 57 50 3c 95 12 d4 3c 7f 9a be bc
       0.016454477 0.012716172 0.025887767 -0.023267029
000060 3b e2 f6 3c b3 f8 4c 3a 69 28 84 3c df c5 f5 3c
       0.030137172 0.00078190415 0.01613255 0.030001579
000070 04 7f b6 3c e9 4d 07 3b b3 a7 19 bc 13 22 83 3b
       0.022277363 0.0020645803 -0.0093783615 0.0040018647
000080 9f e8 e1 bc 22 62 ca 3c 50 d6 fa bc e2 17 af 3c
       -0.027576743 0.024704996 -0.03061977 0.021373693
000090 21 9e 0e 3d 37 4e 98 bc 61 5e 2e bb d5 f3 26 3c
       0.034818772 -0.018591983 -0.0026606547 0.01018997
0000a0 71 9b f5 3c 7f f9 0c 3c 37 37 26 bb 60 ff 61 bc
       0.029981347 0.008604406 -0.00253625 -0.013793796
0000b0 07 b6 21 bc 8b 0b 30 bc fb 84 01 bd 69 82 0b bc
       -0.009870059 -0.01074494 -0.03162096 -0.008514979
0000c0 ca ae f7 3c 5c 02 e6 bc 0a ad 00 bd e0 31 68 bc
       0.030234713 -0.028077297 -0.031415023 -0.014172047
0000d0 25 9d 7a 3c 9a e8 b9 bc d7 ad 70 3c 22 2d 82 bc
       0.015296255 -0.02269392 0.014689884 -0.015890662
0000e0 6b f2 b1 3c 1e 38 a4 bc da 34 76 3c d0 9d cb 3c
       0.02172204 -0.02004629 0.015027249 0.024855524
0000f0 11 85 3c 3c 08 f6 88 3b 1e 74 01 bd 24 7d 07 3d
       0.011506335 0.00417972 -0.03160488 0.033078328

weight f4 [128, 64, 3, 3]
000000 55 f5 9a 3c f0 4d 07 3d 06 35 0b bd 60 af 06 3c
       0.018915812 0.03303331 -0.033986114 0.008220524
000010 18 c9 10 3d ea 85 6e 3b 8c db 25 3c 5a 70 1a bc
       0.035348028 0.0036395737 0.010123145 -0.009426201
000020 4d c6 8d 3b 0a a4 d7 bc 0e ed a5 3a 86 e0 2d bd
       0.004326618 -0.026323337 0.0012659149 -0.04245045
000030 e9 8f a1 bb 89 5d 12 bc d0 42 a6 bc b5 c2 ab 3b
       -0.0049304855 -0.008933433 -0.02029553 0.0052417167
000040 ba d3 7a 3c 54 4f 09 bd d8 b0 0e 3d 8f 7e 26 3d
       0.015309269 -0.03352292 0.03483662 0.04064804
000050 51 2a 92 3b 63 ef 84 bc 60 25 1e 3d 8f c0 ff 3c
       0.004460611 -0.01622743 0.038609862 0.031219749
000060 c2 36 24 3d eb af 23 bd 33 e9 44 3c 89 3a 4d bd
       0.040091284 -0.03996269 0.01201849 -0.05010465
000070 5e 94 09 3b f8 78 80 3b 1e d5 4e bd 83 34 01 bd
       0.0020992975 0.0039206706 -0.050496213 -0.03154422
000080 11 49 12 bd c0 dc a0 3c 94 c7 38 bc 2e 4c 57 3b
       -0.035714213 0.019636512 -0.011278052 0.0032851803
000090 0f 03 c9 3c 6e 1f fe 3c 6e a9 a6 3b 23 41 da 3c
       0.024537591 0.031020846 0.0050861156 0.026642388
0000a0 9f d4 30 bd ae e5 b6 3a 93 05 0e bc c4 32 d1 bc
       -0.04317152 0.0013953948 -0.008668321 -0.025536902
0000b0 f1 5c 20 bc 81 eb 16 3d 6b c5 ae 3c c7 66 85 3b
       -0.009787784 0.036845688 0.02133437 0.00407109
0000c0 4d be 44 bc 01 95 b0 bc c3 fa 46 3a 17 44 4b 3b
       -0.012008262 -0.021555426 0.0007590467 0.0031015927
0000d0 55 fa ff 3c b0 b2 bc 3c ba d5 ca bc 87 d3 bd 39
       0.031247297 0.023034424 -0.024760116 0.0003620649
0000e0 a4 61 21 3d 09 67 00 3d d1 5c 62 3c 47 30 f3 3b
       0.039399758 0.031348262 0.0138160745 0.0074215266
0000f0 ca a5 b1 3c bf 9e 00 bd 6f 4e 6c 3c 91 73 da bc
       0.0216855 -0.031401392 0.014422997 -0.026666434
000100 02 87 df 3b b8 74 8e bb 85 e5 81 3b 0e f4 90 39
       0.006821514 -0.00434741 0.0039641284 0.00027647655
000110 c7 ff f3 b9 aa 40 64 3c 4d 5e 3a bc 13 12 2d 3d
       -0.0004653914 0.013931433 -0.011375022 0.042253565
000120 fe c4 24 bb e0 d0 8a 3c ef 96 a8 bc 43 0d fd ba
       -0.002514183 0.016945302 -0.020579783 -0.001930632
000130 3f 93 3e bd d7 46 29 bd cb b0 de 3b 03 0c 76 3b
       -0.046527144 -0.041327324 0.0067959777 0.003754378
000140 d2 9c 07 3b f6 64 41 bd da b4 12 3d e8 96 ba 3c
       0.0020692837 -0.047215424 0.035817005 0.022777036
000150 06 f4 64 bc eb 1b 27 3b 9f af 5c bc 32 9c c9 3b
       -0.013974195 0.0025498818 -0.013469606 0.006152653
000160 98 58 a8 bc 7b df 09 bc cb 17 e4 bc ef 76 e2 bc
       -0.020550057 -0.008415098 -0.027843377 -0.027644603
000170 ad 5d ec 3c 6a b7 11 3d c4 e4 9d b7 1f 51 20 3d
       0.028853262 0.035575308 -1.8822386e-05 0.039139863
000180 18 9d e9 bc 77 23 0c 3d c2 9a 07 bd 2f 31 e3 bc
       -0.028517291 0.03421351 -0.033106573 -0.027733414
000190 c3 a7 8f 3b 63 41 07 bc be 46 c4 bb 28 37 18 3d
       0.0043840124 -0.0082553355 -0.0059898784 0.037161976
0001a0 d1 86 21 bd 49 82 e4 3b da d3 8d bc 88 a1 d1 bc
       -0.03943521 0.006973539 -0.017312933 -0.02558972
0001b0 ea 8d 34 3d b3 53 eb bc 76 98 38 3d 7d 17 4a 3c
       0.044080652 -0.028726434 0.045067273 0.012334702
0001c0 f2 9e 8b 3c f4 6d 17 3c 3a 43 df bc 84 5d bd 3c
       0.017043564 0.009242523 -0.027253736 0.02311588
0001d0 dc 81 9a 3c a7 86 82 bb 0a 3d 17 bd d2 50 f3 3b
       0.01886075 -0.003983337 -0.036923446 0.007425406
0001e0 4e f5 91 3c 1b 32 b6 bb 0a be 09 bd 28 ce f2 3b
       0.017817166 -0.0055601723 -0.0336285 0.0074098296
0001f0 93 07 f7 bc f8 7a 73 3b 39 26 a2 bc e7 46 e4 3a
       -0.030154979 0.0037152153 -0.019793617 0.001741615
000200 54 d0 98 3c ee 85 05 3d e2 81 a7 bc c3 de b8 bc
       0.018654026 0.03259843 -0.020447675 -0.022567159
000210 ab c2 ea bc aa 82 2b bc c3 26 5e bc 79 e1 c8 bb
       -0.028657278 -0.010468164 -0.013559046 -0.006130394
000220 33 3c fa bc 6e c1 19 3d 8b 00 11 3d b2 e0 89 bc
       -0.030546283 0.037537985 0.03540091 -0.016830776
000230 d3 1b e3 bc 9b db 9f 3b 2b b7 89 bc 0d e7 40 3b
       -0.027723229 0.004878474 -0.016810974 0.0029434592
000240 c7 56 05 3c 5d 69 81 bc 04 01 70 bc c6 ba 8a 3c
       0.008138365 -0.015797311 -0.01464868 0.016934764
000250 a5 72 f1 3c 1e ba 09 3c f5 6e d7 bc db 08 79 3a
       0.029473612 0.00840619 -0.026298026 0.0009499916
000260 1b 60 09 3d 10 40 00 3d ab 2e 06 bd e0 24 3f bc
       0.03353892 0.031311095 -0.03275935 -0.0116665065
000270 63 70 0d 3d 9e 0f b5 3b 44 b6 86 bc 37 67 19 bd
       0.03453101 0.0055255434 -0.016444333 -0.03745195
000280 8a 87 75 bc f7 32 be bc 77 e1 84 3c 51 42 89 bc
       -0.014985928 -0.023217661 0.016220791 -0.016755255
000290 0a 54 09 bd 04 b7 8d 3c 87 80 a2 bc 05 60 e0 3c
       -0.03352741 0.017299183 -0.019836677 0.027389536
0002a0 7d a7 c1 3c 93 a9 8b bc 2b c3 18 bd 0e c2 f7 bc
       0.023639435 -0.017048633 -0.0372955 -0.0302439
0002b0 9a 35 b0 bc 80 9e d2 bc e2 f0 ba 3c 83 6a 09 3d
       -0.021509934 -0.025710344 0.02281994 0.033548843
0002c0 c1 8f b5 3c 9d f2 2c bd 02 1a a2 bc b4 9c 06 bd
       0.022163274 -0.04222356 -0.019787792 -0.032864287
0002d0 f7 dc 3c bc 58 50 34 bc eb 6c 17 3d da 3f 16 ba
       -0.0115272915 -0.011005484 0.036969107 -0.00057315605
0002e0 c5 02 34 3c e0 5e 23 3c 71 a6 d0 bc 91 89 b7 bc
       0.010986988 0.00997135 -0.02546999 -0.022404464
0002f0 98 9b 08 bc 10 71 cf 3a de 12 97 bc 9b b1 2b 3c
       -0.008337878 0.0015826542 -0.018441614 0.010479356
000300 5d 55 7e bc 3f fc 0b 3c 50 ec 83 3c 9e 81 96 bc
       -0.015523282 0.008544027 0.016103894 -0.018372353
000310 b6 90 8c 3c 9e 35 21 3d 50 2a f5 3c 21 9f e7 3c
       0.017158847 0.039357774 0.029927403 0.02827412
000320 ed 1a b6 3c 4b 76 5c 3c 63 03 d2 3c ef 0a ef bc
       0.022229636 0.013455938 0.02563638 -0.029180018
000330 2f b6 be 3c 59 ba af 3b 38 8d 67 bc 20 cd 71 bc
       0.023280231 0.0053627905 -0.01413279 -0.014758378
000340 38 f0 47 3b a4 7b d0 3c e8 e9 b7 bc ea 82 dd 38
       0.0030508172 0.025449581 -0.022450402 0.00010562486
000350 20 6f b2 bc c6 dc da bb da 1a 2b 3d 92 01 10 3d
       -0.021781504 -0.0066791503 0.041773655 0.035157748
000360 57 b3 d9 bc d0 c5 e5 3c c3 a3 47 3c c4 a1 03 3d
       -0.026574774 0.028048426 0.01218504 0.032136694
000370 0e c5 f2 3c da a4 da 3c f7 e5 06 bd 17 b8 03 3d
       0.029634979 0.026689935 -0.032934155 0.032157984
000380 51 05 b4 bb b7 e1 be bc 35 bc 07 bd 08 7a b0 bc
       -0.005493798 -0.023300989 -0.033138473 -0.021542564
000390 79 12 d3 bc 06 19 0a bd 62 06 36 3c 91 54 05 3c
       -0.025765644 -0.03371527 0.01110992 0.008137838
0003a0 3b b9 a3 39 73 32 e0 3c d6 92 4e 3c 3f 05 69 bc
       0.0003122779 0.027367806 0.012608251 -0.014222442
0003b0 a3 8e 1a bd 4c b2 22 3d ea 8e 97 bc c2 ba eb 3c
       -0.037733685 0.03972082 -0.018500764 0.028775577
0003c0 ad 86 59 bb 85 1b 60 3c a2 a3 fc bc a5 00 c9 3c
       -0.0033191845 0.013678436 -0.030839745 0.02453644
0003d0 ac e2 2b 3d 00 91 dd bc 8f d6 28 bc 1a fe 29 3a
       0.041964218 -0.02704668 -0.010305061 0.00064847025
0003e0 12 98 2b 3c 6f ec da bc ff 61 0d 3d cf 3e 03 bd
       0.010473268 -0.026724068 0.034517284 -0.03204232
0003f0 07 e8 92 3b d7 a0 27 bc 07 ae 88 3c 7d 25 09 3d
       0.004483226 -0.010231218 0.016684545 0.033483017

bias f4 [128]
000000 66 06 2a 3c db f7 79 3c 0a 5a 08 bd e3 68 cf bc
       0.010377502 0.015256847 -0.033288993 -0.025318569
000010 a3 9b c0 bc 86 af 11 3d 57 ce 28 bd 36 10 57 bc
       -0.023511713 0.035567783 -0.041212406 -0.013126424
000020 60 83 ac bb ce be 23 3d 1b 82 25 bd 56 91 51 bc
       -0.0052646846 0.039976887 -0.04040728 -0.012790998
000030 00 ec b9 bc 5b 4c 6d bc d6 b1 9e bb 30 96 18 3d
       -0.022695541 -0.014483537 -0.004842977 0.037252605
000040 cb ba 56 bc f3 b8 cb 3c 96 75 1f 3d 3b 23 b4 3c
       -0.013106058 0.024868464 0.038930498 0.021989455
000050 20 16 2b 3c 66 83 6a 3c 58 b7 db 3c a8 70 c6 bc
       0.010442287 0.014313554 0.026820824 -0.02422364
000060 cb 82 fa 3b ff 6b 0c bd 00 31 08 bd c0 5a 2a bd
       0.0076449863 -0.03428268 -0.033249855 -0.041590452
000070 7b 77 57 3c 2e 58 fd 3c 96 e3 e7 bc d4 50 0a bd
       0.013151045 0.030925836 -0.028306764 -0.03376849
000080 8b a4 54 3c a3 10 19 3d 5e 32 8f 3c 1b 90 b3 bc
       0.012978683 0.03736938 0.017480072 -0.0219193
000090 9b f3 fc bc 77 53 07 3d 56 43 37 3a 86 c8 0d bc
       -0.030877879 0.033038583 0.000699093 -0.008653766
0000a0 ae b2 0d 3d 56 e3 89 bb f3 8a 9a 3c 46 ab 51 bc
       0.03459423 -0.0042080088 0.018865084 -0.012797182
0000b0 06 7d 1e bc 4b 4b 14 bc bb 9e 89 bc 9b 7d 6b bc
       -0.009673363 -0.009051154 -0.016799321 -0.014373208
0000c0 1e 15 82 bc 06 79 46 bc 56 84 84 bc 40 5c 41 3c
       -0.01587921 -0.012113815 -0.016176384 0.011801779
0000d0 d6 b4 a9 bc 16 e0 34 bc 63 12 93 bc 20 df d5 3b
       -0.020716112 -0.011039754 -0.017953103 0.0065268427
0000e0 6a c7 20 3d ab 95 6a ba 76 32 ce 3b 57 66 03 3d
       0.039252676 -0.0008948694 0.0062926365 0.03208002
0000f0 db 95 7c 3c 74 a4 18 bd 63 40 bb bc 50 71 fa bc
       0.015416588 -0.03726621 -0.02285785 -0.03057161
000100 36 66 a2 bb e0 42 97 3c 2a b4 05 3d 40 75 c7 3c
       -0.004956032 0.018464506 0.03264252 0.024347901
000110 90 06 37 bc a6 29 0d bd ca aa 05 3d 60 65 56 bc
       -0.011170998 -0.034463547 0.03263358 -0.013085693
000120 56 5b a3 3c 8e e6 1f bd 42 d2 0f bd b6 ff dc bb
       0.019941013 -0.039038233 -0.035112627 -0.0067443503
000130 20 db af 3c 80 34 4a 3c 33 fc 92 bc 9e 0c 17 bd
       0.021466792 0.012341619 -0.017942524 -0.036877267
000140 56 42 ee 3b ba 9a 08 3d 96 ff 58 3c 43 df b7 bc
       0.0072710915 0.033350684 0.01324453 -0.022445327
000150 30 e8 6e 3c 06 2a 9e bc a6 73 a9 bc b8 c5 e8 3c
       0.014581725 -0.019307148 -0.020685028 0.028414592
000160 20 dd bb bc 4b 34 61 bc 3f 3b 09 bd 5b 88 5e 3c
       -0.022932589 -0.013745378 -0.033503767 0.013582314
000170 60 ea f9 3b 0a d6 1f bd 68 4e ca bc 23 05 ff bc
       0.0076268166 -0.039022483 -0.02469559 -0.031130379
000180 8b 26 0a bd fb e4 8d 3c 7e 88 c1 bc 60 97 a3 bb
       -0.033728164 0.0173211 -0.023624655 -0.0049924105
000190 66 49 22 bd e0 90 c3 bc 4a d1 08 3d 4c 9a 28 3d
       -0.03962078 -0.023872793 0.03340272 0.041162774
0001a0 70 6a a5 3c 2e 48 95 3c fb 00 72 3c 88 ea ae bc
       0.020192355 0.018222895 0.014770742 -0.021352068
0001b0 36 cd 0b bc 90 fa 73 3c 16 e3 50 3b eb 65 0c 3d
       -0.008532813 0.014891282 0.0031873635 0.034276884
0001c0 fe 35 ad 3c 26 1c 17 3d 38 fa 10 bd 7b 5a 91 3c
       0.02114391 0.03689208 -0.035394877 0.01774334
0001d0 db e4 0b 3c 6b 7d a8 bc eb dd 20 3d b0 44 30 3c
       0.00853845 -0.020567616 0.039274137 0.010758564
0001e0 90 cc 81 3c d6 29 c8 bc ab a3 48 3b 5b 54 45 3c
       0.015844613 -0.024434011 0.0030615132 0.012044038
0001f0 86 7d ea 3c ae ee e1 3c b6 89 f3 bc a8 98 b3 bc
       0.028624307 0.027579632 -0.029728752 -0.021923378

weight f4 [96, 128]
000000 d6 b8 a9 bd cc 9d 8b 3d 8d 91 92 3d 7c b5 8b 3d
       -0.08287208 0.06817207 0.07156668 0.06821725
000010 25 28 8e 3c 0f 41 48 bd 50 89 dc 3d 5c 28 eb bc
       0.017353127 -0.04889017 0.10768378 -0.028705768
000020 e8 bb b8 bd ed ee 85 bd fb bb 38 3d 01 ea 0b 3d
       -0.09020215 -0.06539712 0.045101147 0.03415871
000030 21 da 22 bd 90 95 2c 3d bb ec d0 bc 6c 45 35 ba
       -0.039758805 0.04213482 -0.025503507 -0.0006914947
000040 4f 1b 1a 3d 3d 90 16 bd 4d 3a ee 3d ba 60 51 3d
       0.0376237 -0.03675865 0.11632214 0.051117636
000050 24 64 8e bc d1 45 39 3d 98 a7 69 bd d4 a5 91 bd
       -0.017381735 0.045232598 -0.057044595 -0.07111707
000060 67 3c 0e 3d 5c 54 92 3d d5 d4 51 3d 22 0b 50 bd
       0.034725573 0.071449965 0.051228363 -0.050791867
000070 c2 54 44 bc 5e b5 1f 3d 33 5d a0 3d e2 ac 0c bd
       -0.011983098 0.038991325 0.07830276 -0.03434456
000080 09 4a 82 bc bf 58 0c 3d e3 5c 23 bd ac 42 fc bc
       -0.015904443 0.034264322 -0.039883506 -0.03079351
000090 8c a6 82 3d 0f 96 91 bd 80 79 b6 ba bb 3a 8e 3d
       0.063794225 -0.071086995 -0.0013921708 0.06944796
0000a0 f5 fb 85 3c e1 85 04 3d 74 49 9f bd 0b 40 09 3c
       0.016355494 0.03235424 -0.07777682 0.008377085
0000b0 56 1c 6a 3d 7f 3e d9 3d 8a d6 8a bd c6 9e 1b 3c
       0.05715593 0.10607623 -0.06779201 0.009498304
0000c0 3d 23 69 bc bf e4 6d 3d b5 c2 88 ba 6d 42 cd 3d
       -0.014229593 0.058079477 -0.0010434004 0.10022435
0000d0 5c 34 3e 3d 5f 40 fc 3c e1 9a 13 bd bc 6a 86 bd
       0.046436653 0.030792413 -0.036036376 -0.06563327
0000e0 e1 ac 5c bd b1 10 59 bd 37 a6 bc 3c 08 73 32 3d
       -0.053875808 -0.052994434 0.023028476 0.043566734
0000f0 4e 83 d9 3d 43 0a 6c 3d df fd 3b 3d ee e5 6b 3d
       0.106207475 0.057626974 0.045896407 0.057592325
000100 52 1f 94 bc 5b 31 a3 bd dd d3 d6 bd c8 5a be 3d
       -0.018081341 -0.07968398 -0.104896285 0.09294659
000110 64 1a 14 bd c3 01 a9 bd 42 34 26 3d 18 dc 8d 3c
       -0.03615798 -0.08252289 0.04057718 0.017316863
000120 d6 1c 8c 3d 24 18 da 3c e6 f6 ad 3d 99 fe 96 3d
       0.068414375 0.02662284 0.08494358 0.073727794
000130 9b 37 e4 3c af f2 b2 3d bc 74 4f 3c 5e b4 58 bb
       0.027858546 0.087376945 0.012662109 -0.0033066492
000140 e8 34 ec 3d 42 3f ae 3d fe 26 e0 bd 64 40 91 3d
       0.115335286 0.08508159 -0.10944937 0.0709236
000150 b8 20 1d 3d 78 88 7d 3c 45 cc 64 3d a2 d8 98 3b
       0.03836128 0.015474431 0.05585887 0.0046644965
000160 92 5d e9 3d 2c e1 9a bd c2 95 85 3a 8f 1d 06 bd
       0.113948 -0.075624794 0.0010191726 -0.032743033
000170 cf 3e 9c 3c d4 82 1a 3d cd 6c fc bc 4e 3d c7 3d
       0.019072918 0.037722424 -0.030813599 0.0972849
000180 88 67 a9 bc 40 ab 0a 3d a3 9b 98 3c 78 7e 07 bd
       -0.02067925 0.033854723 0.0186289 -0.033079594
000190 cd 44 61 3d b7 76 d7 3c 7d 3d 0c 3c 69 ee c8 bb
       0.054997254 0.026301725 0.008559582 -0.0061319363
0001a0 f4 f7 82 3d 50 55 71 bc a7 c8 c7 ba 4f 10 0a 3c
       0.063949496 -0.014729813 -0.0015242294 0.00842674
0001b0 62 8f e9 bc 99 aa e2 bc b1 48 b3 3d 6e 88 2d bd
       -0.028510753 -0.027669238 0.08754099 -0.042366438
0001c0 34 09 c6 3d 14 9d 07 3c 1f 8a 93 3d a2 9a c2 3d
       0.09669724 0.008277196 0.07204079 0.0950215
0001d0 62 bc 07 3d 84 b7 86 3d 83 6c a4 bc dd 09 d8 3d
       0.03313864 0.065779716 -0.020071274 0.10548756
0001e0 4d f7 ae bd fe b5 f0 3d b4 42 aa 39 be 2f 01 bb
       -0.08543263 0.11753462 0.00032474624 -0.0019712294
0001f0 de b4 d2 bc 21 78 ba bd 48 3b 1b bd 88 a6 e2 3d
       -0.02572101 -0.09104944 -0.037898332 0.110669196
000200 78 d2 2b bd c2 9c 3f 3c 8a 98 25 3d 49 ed eb bb
       -0.041948766 0.011695089 0.040428676 -0.0071999175
000210 66 b7 9e 3b 6c 24 71 3d 84 46 09 bd 32 ce fd bc
       0.00484364 0.058872625 -0.033514515 -0.03098211
000220 fa 15 e2 bc b0 78 a8 3d b3 71 c9 3c d2 df 6e 3d
       -0.02759837 0.08226144 0.024590349 0.05831892
000230 b6 06 cb 3c d8 88 6d 3c 36 73 ad 3b 49 b5 74 bc
       0.024783473 0.014497958 0.005293275 -0.0149358
000240 23 c3 e7 bc 0b 35 53 3d a7 df 30 bd 93 f0 34 3d
       -0.02829129 0.051564258 -0.04318204 0.044174742
000250 33 d6 6a 3d 15 cd ac 3c ee b1 49 bd 44 72 4d bd
       0.057333183 0.021093884 -0.049241953 -0.0501578
000260 de 13 85 3c 72 dc e5 3c 8e 63 07 3d ee c9 bf bc
       0.016244825 0.028059218 0.033053927 -0.023411717
000270 92 83 4e 3c 30 43 20 3d 11 7a 9b bd fe 95 b4 3d
       0.012604611 0.039126575 -0.07591642 0.08817671
000280 07 e7 6a 3d 5f f1 1f 3c 89 c6 d6 bd c9 4f 75 3b
       0.05734923 0.009762137 -0.10487086 0.003743159
000290 a3 45 9c bd a3 bb 38 3d 1c e3 78 3d 33 7e 02 bc
       -0.0763047 0.04510082 0.060763463 -0.007964659
0002a0 3b 09 36 bd 87 b1 a3 bd 20 99 59 bc 14 3d 28 bd
       -0.044442397 -0.07992845 -0.013281137 -0.041073874
0002b0 49 fd d5 3c 1a 44 10 3d 51 bc 00 bc 45 df 4c bd
       0.026121752 0.035221197 -0.007857398 -0.050017614
0002c0 46 3c a4 bd 5e 46 45 3c eb 54 20 3d aa 34 db bd
       -0.08019309 0.012040703 0.039143484 -0.10703404
0002d0 57 36 2e bd 84 c5 17 3d d1 10 2c 3b 85 90 b7 3d
       -0.04253229 0.0370536 0.002625514 0.08963112
0002e0 7f 5b 9c bd 84 f5 6e 3d a2 16 06 bd 66 a1 86 3d
       -0.07634639 0.05833961 -0.032736428 0.06573753
0002f0 7e a4 e3 3d a2 dc 5e 3d ac 19 11 bd c4 cc bb 3d
       0.11115359 0.05440963 -0.035424873 0.09169915
000300 a3 1a d7 bd 6a b6 de bd 78 b1 10 3d d5 40 d5 bd
       -0.105031274 -0.108746365 0.035325497 -0.10412756
000310 b3 46 46 bd 31 ed a6 3d 2f 47 0b bc 3d 36 08 3d
       -0.048407268 0.081507094 -0.008500858 0.03325485
000320 f1 ac db 3c fe 27 19 3d e5 9e 89 bd 5e 83 b7 3c
       0.026815863 0.037391655 -0.0671976 0.022401508
000330 35 5c a5 3d 1e f5 ae 3c b6 36 94 3d f8 c2 47 3d
       0.08074228 0.021357115 0.07236998 0.04876992
000340 ac 3c cf bc 54 c5 1d bd 15 87 6f bd 0f 5b 8e 3d
       -0.025297485 -0.038518265 -0.058478434 0.06950962
000350 9f 44 32 bd fb 79 cf bc f3 e8 d7 bb 21 54 8d 3d
       -0.043522473 -0.02532672 -0.006589049 0.06900812
000360 d4 a4 93 bb d5 aa 28 3d 6b 58 61 3c 3d 88 f5 bc
       -0.004505733 0.041178543 0.013753991 -0.02997219
000370 af 21 68 3c 9c 4c 43 3d 83 56 d6 3d cc c6 ab 3d
       0.014168187 0.047680482 0.104657196 0.08387527
000380 98 3f 4e 3d 38 eb 80 3d 8e 05 96 3d 2f 56 2e 3d
       0.050353616 0.062948644 0.07325278 0.04256266
000390 da 03 a5 bd c7 91 b7 3c 98 cb 48 3c 99 d6 2d 3c
       -0.08057375 0.02240838 0.012255572 0.010610246
0003a0 29 1e 39 bd 32 37 46 bd 28 5d c1 bd 7f 56 12 3c
       -0.04519478 -0.048392482 -0.09441596 0.008931755
0003b0 4f e9 23 bc b3 63 9c bd 99 a9 55 3c f5 9b 45 bd
       -0.010004356 -0.076362036 0.0130409235 -0.048244435
0003c0 aa 23 ae bd 5c 86 bb 3d db 21 13 3c aa 18 bc bd
       -0.08502896 0.091564864 0.00898024 -0.09184392
0003d0 17 86 06 3d 9d 68 49 3d 70 20 c0 3b 4e 3c 00 3d
       0.03284272 0.049172033 0.005863242 0.03130751
0003e0 30 7e 8b 3d 44 e2 2b 3d 56 aa 66 3d 7f 82 90 bd
       0.06811178 0.04196383 0.05631479 -0.0705614
0003f0 ed 2c 57 39 c4 d5 9c 3d 19 4f d7 3c a1 d6 3d 3d
       0.00020520734 0.0765796 0.026282834 0.046347264

bias f4 [96]
000000 7a 00 69 bd 96 22 95 3d 82 16 01 3e 0a 23 5e 3b
       -0.05688522 0.07281987 0.12606242 0.0033895397
000010 e3 23 2f bc 1b 9e 1c 3d f1 23 83 bd 2b dd f8 3b
       -0.010689708 0.03823672 -0.0640334 0.0075947247
000020 e2 88 66 bd 64 d5 15 bd e4 5b 3d bd 34 b4 80 3c
       -0.056282885 -0.03658046 -0.04623021 0.015710928
000030 59 46 3d 3d 1b 73 a2 bc 65 46 9b 3d aa a3 c5 3c
       0.046209667 -0.019830277 0.07581786 0.024125893
000040 5a d6 98 3c 9f 98 89 bd 64 ea 5e bc a2 e3 a4 bd
       0.018656898 -0.06718563 -0.013605688 -0.0805123
000050 f1 e6 ab 3c 17 ca 10 3d 8b 2d 75 3d b0 b8 40 3a
       0.020984145 0.035348978 0.059857886 0.00073517393
000060 a1 5d 8a bd 14 16 8d bd 2d d9 20 bd be bb 15 3d
       -0.067561395 -0.06888977 -0.039269615 0.036555998
000070 02 be b7 bc 23 89 af bc 08 4e 63 3d 26 1e b5 bd
       -0.02242947 -0.021427697 0.05549434 -0.08843641
000080 76 32 e5 3d 16 04 c5 bd f8 fe 9b 3c d2 84 77 bc
       0.11191265 -0.0961992 0.019042477 -0.01510735
000090 87 01 e6 3b 0c ba 09 3e f1 b4 c5 3d b1 6c 15 3c
       0.007019225 0.13449878 0.096536525 0.009120152
0000a0 fa c7 69 3d ba 96 a3 bd 84 9d 90 3d ea 0f 96 3d
       0.057075478 -0.07987733 0.07061294 0.07327254
0000b0 c4 1c 06 3d 96 35 ec 3c b2 65 b6 3d fd d3 a7 3d
       0.032742277 0.028834146 0.089061156 0.081947304
0000c0 b3 27 8a 3d 2b 64 1b bc 03 06 6e bd 1f 11 e3 3d
       0.06745853 -0.009484331 -0.058111202 0.1108725
0000d0 d4 5c b1 3d 18 80 3e bc 98 f1 e2 3c bc 0d b1 bd
       0.08660284 -0.01162722 0.027703092 -0.08645198
0000e0 32 38 7d 3d 69 d3 6d bd 68 70 34 3d ab 52 d8 bc
       0.06182117 -0.058062945 0.04405251 -0.026406607
0000f0 f1 eb 8f 3d f2 b5 91 3d 80 25 8e 3d 5f af 20 3d
       0.07027424 0.071147814 0.06940746 0.039229747
000100 b0 14 12 bd 63 40 56 3d 7e 9b 45 bd 54 87 1f 3d
       -0.03566426 0.052307498 -0.048243992 0.03894742
000110 35 b5 8d bd 44 ef 8d 3d 73 0d 9d 3d af 32 ae bc
       -0.06919328 0.06930402 0.07668581 -0.021264402
000120 34 db 28 3d a3 d6 1f 3c 6d fa 82 3c ff b6 51 bd
       0.041224673 0.009755763 0.015988553 -0.05119991
000130 75 cb 61 3d a6 0e a2 3d 1d e7 a5 bd 10 93 6a 3d
       0.055125672 0.0791295 -0.08100722 0.057269156
000140 08 a6 0f 3e 6c c9 17 bd fd b2 e7 3c df 2d 59 3c
       0.1402818 -0.037057325 0.02828359 0.013255565
000150 f6 9d 94 bd bf a2 8b bd be 59 d6 3d 53 3c 8e bc
       -0.07256691 -0.06818151 0.10466336 -0.01736275
000160 72 d3 9a 3d bb 0b d5 bc 3a 47 3c bd 5f ac e5 bc
       0.07559861 -0.02600657 -0.045966364 -0.028036295
000170 ce 35 83 bd 50 15 77 bd de e9 f6 bc 48 1f 92 3d
       -0.06406747 -0.06032306 -0.030140813 0.07134873
