Sign_Language_Classifier.pth (torch, 653300 bytes, 30 tensors)

weight f4 [16, 3, 3, 3]
0.050671358 -0.09882261 -0.3493567 0.101747364 -0.2649785 -0.1974938 -0.36816624 -0.251311
-0.18515009 0.53152525 0.6395067 0.47668415 0.98858666 0.67873096 0.76434714 0.78994685
0.82843626 0.74830353 -0.23060752 -0.17503653 -0.30926585 -0.108382516 -0.23929493 -0.0024399927
-0.25369474 -0.2409741 -0.16555494 -0.155347 -0.011788212 -0.3661846 -0.09378627 -0.4732
-0.2716365 -0.46842423 -0.6295364 -0.5319663 0.27017158 0.40282717 0.124551825 -0.17019017
-0.103813015 -0.30532342 -0.3702828 -0.36570904 -0.4568675 1.0222718 1.3613299 1.0132406
0.8320125 0.65103024 0.361684 0.0765304 -0.029661875 0.1661607 0.37532336 0.35937795
0.36732426 0.2552787 0.3699605 0.10685487 0.27993637 0.0659774 0.28700852 -0.2956449
-0.3620798 -0.5338151 -0.17823403 -0.6427028 -0.7210341 -0.4810214 -0.41545707 -0.58312935
0.5054863 -0.02818906 -0.11542871 0.05187652 -0.13330697 0.015981063 0.27304026 0.12149192
-0.15172434 0.45623466 0.60863286 0.43646422 0.52673995 0.3413469 0.51401204 0.26297152
0.30976146 0.46886995 0.01896396 -0.14107479 0.0037770981 -0.16818573 -0.44855034 -0.41941774
-0.21337773 -0.4522112 -0.45727053 -0.2654488 -0.300775 -0.1881048 -0.41223714 -0.5789438
-0.46834525 -0.5794327 -0.6260622 -0.5972068 0.12675723 0.2411492 0.53251976 0.23255387
0.2875199 0.089476176 -0.0034599705 0.097999334 0.25234225 -0.5148841 -0.2293026 -0.20086618
-0.48219684 -0.40189326 -0.17380275 -0.7391264 -0.58392215 -0.36726883 9.4207324e-05 0.025912357
0.40952313 -0.1056317 0.13461623 0.21221776 -0.31078047 0.030950842 0.06512363 -0.43861175
-0.39593208 -0.37669525 -0.14174065 -0.10142728 0.042892285 -0.22759451 0.20698148 -0.051911697
0.21336664 0.41865632 0.5277989 0.49055716 0.6487884 0.34735227 0.42225364 0.422862
0.515229 -0.8565943 -0.3452297 -0.57670236 -0.45840064 -0.29910502 -0.2512515 -0.590459
-0.12824345 -0.20657654 -0.2775791 -0.57291615 -0.27710387 -0.38309976 -0.5661082 -0.2656909
-0.22382411 -0.51430166 -0.471201 -0.21719265 -0.2064369 -0.42773324 -0.32203302 -0.38185766
-0.52930975 -0.10716967 -0.14963153 -0.53452563 0.4400089 0.4027495 0.3074564 0.30986625
0.38752457 0.35828203 0.49426037 0.29652536 0.25334105 0.37846622 0.30723602 0.37077364
0.4655777 0.46820056 0.39806935 0.20145883 0.20814662 0.30025402 0.40837443 0.40955147
0.2266351 0.33318678 0.5478816 0.517554 0.40312573 0.2777831 0.32809937 -0.552897
-0.44994414 -0.28550163 -0.23128721 -0.2792721 -0.49631992 -0.46413833 -0.3941064 -0.13740703
-0.04974868 -0.129185 -0.009677149 -0.13169323 -0.19776571 0.08640989 -0.04555968 0.006330843
-0.132837 -0.60955495 -0.61610246 -0.710943 -0.7694637 -0.84131694 -0.77836597 -0.32657948
-0.3562753 -0.25581384 0.42611626 0.31048176 0.26366228 0.26648188 0.1867573 0.20944457
0.6925905 0.48775616 0.58534795 0.010305641 0.079250194 0.013947712 -0.025801975 0.13271393
0.06311412 0.19083945 0.024513356 -0.014566574 -0.71017617 -0.7721711 -0.6253991 -0.83930576
00000000: c58c 4f3d 8263 cabd e2de b2be ec60 d03d
00000010: 43ab 87be d13b 4abe 4980 bcbe d6ab 80be
00000020: fc97 3dbe 0a12 083f b6b6 233f f20f f43e
00000030: 0414 7d3f 50c1 2d3f 41ac 433f f539 4a3f
00000040: 6614 543f d290 3f3f 6124 6cbe c73c 33be
00000050: 1858 9ebe a7f7 ddbd bb09 75be 49e8 1fbb
00000060: 47e4 81be eac1 76be 3c87 29be 4913 1fbe
00000070: 5823 41bc 8c7c bbbe 0413 c0bd 4547 f2be
00000080: f013 8bbe 4dd5 efbe 4c29 21bf f22e 08bf
00000090: ee53 8a3e 5d3f ce3e 0715 ff3d 5546 2ebe
000000a0: eb9b d4bd 5a53 9cbe b595 bdbe 373e bbbe
000000b0: 89ea e9be cdd9 823f 0f40 ae3f deb1 813f
000000c0: c5fe 543f eba9 263f a52e b93e f8bb 9c3d
000000d0: 76fd f2bc 0826 2a3e 622a c03e 6300 b83e
000000e0: ed11 bc3e e4b3 823e 766b bd3e bad6 da3d
000000f0: d253 8f3e 291f 873d c8f2 923e c55e 97be
00000100: 8662 b9be 1ba8 08bf fb82 36be 2c88 24bf
00000110: b195 38bf 7048 f6be cab6 d4be f747 15bf
00000120: 8d67 013f beec e6bc e365 ecbd 797c 543d
00000130: 9f81 08be b8ea 823c efcb 8b3e c1d0 f83d
00000140: a05d 1bbe 9797 e93e 5dcf 1b3f 3d78 df3e
00000150: 6ed8 063f 05c5 ae3e 4b96 033f 34a4 863e
00000160: 0e99 9e3e b90f f03e 4f5a 9b3c e975 10be
00000170: 3189 773b e138 2cbe 64a8 e5be ecbd d6be
00000180: b17f 5abe 3a88 e7be 5d1f eabe e8e8 87be
00000190: 2eff 99be 8b9e 40be bf10 d3be a935 14bf
000001a0: f3ca efbe b455 14bf 9d45 20bf 8be2 18bf
000001b0: a6cc 013e d1ef 763e 3753 083f 9a22 6e3e
000001c0: cf35 933e 493f b73d acc0 62bb e0b3 c83d
000001d0: 0133 813e 72cf 03bf 4dce 6abe ddaf 4dbe
000001e0: 81e2 f6be f4c4 cdbe 59f9 31be 6337 3dbf
000001f0: ec7b 15bf a90a bcbe 2c91 c538 2746 d43c
00000200: 04ad d13e 6f55 d8bd d6d8 093e 9d4f 593e
00000210: 9e1e 9fbe 9f8c fd3c 8a5f 853d b891 e0be
00000220: 9cb7 cabe 33de c0be 7624 11be 1bb9 cfbd
00000230: d2af 2f3d 890e 69be f4f2 533e 5ca1 54bd
00000240: c97c 5a3e 1f5a d63e d41d 073f 4f2a fb3e
00000250: ff16 263f 28d8 b13e a131 d83e 5e81 d83e
00000260: 0ce6 033f c449 5bbf f2c1 b0be c4a2 13bf
00000270: 7db3 eabe 4b24 99be 09a4 80be 5228 17bf
00000280: 4052 03be cd88 53be d91e 8ebe a2aa 12bf
00000290: 8fe0 8dbe a725 c4be 78ec 10bf a308 88be
000002a0: 2632 65be 46a9 03bf 4241 f1be c067 5ebe
000002b0: 3264 53be daff dabe 83e1 a4be d982 c3be
000002c0: d880 07bf c67b dbbd 0239 19be acd6 08bf
000002d0: d948 e13e 2f35 ce3e ed6a 9d3e caa6 9e3e
000002e0: 9f69 c63e be70 b73e b20f fd3e 2cd2 973e
000002f0: ebb5 813e 53c6 c13e 0a4e 9d3e 0bd6 bd3e
00000300: 3360 ee3e fcb7 ef3e bfcf cb3e 394b 4e3e
00000310: 6324 553e e5ba 993e 7416 d13e bbb0 d13e
00000320: 0813 683e 7597 aa3e f841 0c3f 6b7e 043f
00000330: 7f66 ce3e 9639 8e3e a4fc a73e a88a 0dbf
00000340: 145f e6be 452d 92be 8ed6 6cbe c1fc 8ebe
00000350: a51d febe 8aa3 edbe 50c8 c9be 6eb4 0cbe
00000360: 46c5 4bbd 1349 04be e88c 1ebc 97da 06be
00000370: 1883 4abe abf7 b03d c99c 3abd f672 cf3b
00000380: 6c06 08be cb0b 1cbf e4b8 1dbf 5c00 36bf
00000390: 93fb 44bf 8c60 57bf fe42 47bf 6d35 a7be
000003a0: b769 b6be 08fa 82be e92b da3e 77f7 9e3e
000003b0: befe 863e 5070 883e 4e3d 3f3e a378 563e
000003c0: 9c4d 313f 2dbb f93e 5dd9 153f fed8 283c
000003d0: ed4d a23d f284 643c aa5e d3bc 29e6 073e
000003e0: fa41 813d 6b6b 433e 3cd0 c83c a4a8 6ebc
000003f0: 1bce 35bf 01ad 45bf 281a 20bf bedc 56bf

bias f4 [16]
-0.0060345554 -0.015200943 -0.14939655 0.28234538 0.15871356 -0.5618746 -0.28292882 -0.067661844
-0.23529452 0.2520494 -0.3288632 0.22144155 0.32534844 -0.20589215 0.1008138 0.35712317
00000000: 85bd c5bb 600d 79bc 69fb 18be 938f 903e
00000010: cf85 223e 04d7 0fbf 0cdc 90be 4b92 8abd
00000020: 0cf1 70be 9e0c 813e c260 a8be 93c1 623e
00000030: 1294 a63e 64d5 52be 7777 ce3d d9d8 b63e

weight f4 [32, 16, 5, 5]
-0.32285425 -0.3784789 -0.3588548 -0.44358316 -0.48075262 -0.29484427 -0.25226122 -0.27223253
-0.3502607 -0.36783597 -0.29906723 -0.28065324 -0.2630727 -0.30593175 -0.39263043 -0.3673402
-0.24702856 -0.295297 -0.38312212 -0.4856416 -0.4629108 -0.4228206 -0.43592158 -0.5309801
-0.64125603 -0.18575738 -0.13933137 -0.06601833 -0.13444833 -0.18674523 -0.24048802 -0.12961806
-0.088797525 -0.1557095 -0.22391538 -0.2695964 -0.21821295 -0.18865396 -0.15412623 -0.25897092
-0.30102745 -0.23117569 -0.23764952 -0.25178325 -0.32082525 -0.4125981 -0.36192614 -0.34340754
-0.34706697 -0.38329545 -0.37356392 -0.480026 -0.5319672 -0.544627 -0.464732 -0.36279616
-0.45708135 -0.54148495 -0.5877347 -0.5342417 -0.37449175 -0.47104642 -0.5120346 -0.5390978
-0.4063804 -0.3933931 -0.46743235 -0.5231301 -0.4102679 -0.36000583 -0.27952608 -0.4151829
-0.47281682 -0.35459733 -0.21644197 -0.29464948 -0.30330783 -0.44477868 -0.435935 -0.44082385
-0.3171201 -0.30563766 -0.35935917 -0.4549018 -0.44195205 -0.23783982 -0.21863338 -0.29348063
-0.4114939 -0.37337986 -0.29236248 -0.18796454 -0.29998308 -0.3579437 -0.36223683 -0.0890168
-0.036544055 -0.13863367 -0.1869494 -0.1419991 -0.2076169 -0.367051 -0.4097212 -0.39734915
-0.407317 -0.28732973 -0.37141925 -0.41865912 -0.39431 -0.37896812 -0.26663357 -0.26297992
-0.27607042 -0.28610474 -0.31613117 -0.2915731 -0.32333288 -0.2959595 -0.33451796 -0.29372528
-0.15550326 -0.27030513 -0.24776971 -0.30751437 -0.24715512 0.0243026 -0.013807096 -0.09277883
-0.116881475 -0.08526675 0.071748935 0.010935672 0.041896243 -0.068674885 -0.029839782 0.14810465
0.05923246 0.040358767 -0.023432912 0.004071748 0.12149526 0.07295856 0.07191909 0.09684123
0.02280388 0.16829188 0.1070893 0.1077673 0.14859614 0.12431049 -0.015123184 -0.052072614
-0.09811257 -0.0539433 -0.1257287 -0.09686643 -0.092545286 -0.15219902 -0.1502032 -0.12991662
-0.037194017 -0.0110861305 -0.056180887 -0.1105697 -0.122994326 0.03352806 0.057729933 0.0475233
0.015521871 -0.029924935 0.024961665 0.17656082 0.13075812 0.089540586 0.024885232 -0.67790085
-0.6034026 -0.6288815 -0.62077045 -0.62437254 -0.34042776 -0.2257475 -0.25698748 -0.26788372
-0.26015058 -0.12292455 -0.11320759 -0.08464391 -0.13367455 -0.16914229 -0.23888032 -0.1196595
-0.0532015 -0.1263945 -0.10824718 -0.12133413 -0.10579628 -0.03796823 -0.027106347 -0.15678744
-0.48308733 -0.52479166 -0.4843113 -0.6086095 -0.5161683 -0.4663531 -0.4589322 -0.5013735
-0.5961915 -0.6030091 -0.5918974 -0.5477289 -0.6710459 -0.691711 -0.7393404 -0.6603489
-0.5697778 -0.5939763 -0.70106834 -0.7582346 -0.63876474 -0.51938075 -0.46569124 -0.5913592
-0.6524189 -0.34278297 -0.36517593 -0.31338874 -0.39668763 -0.4157861 -0.32015553 -0.23958729
-0.2231686 -0.26601022 -0.31895274 -0.2506824 -0.22267498 -0.16678624 -0.27898753 -0.2693584
-0.337875 -0.1935094 -0.14353234 -0.20248005 -0.2940413 -0.20162095 -0.060914237 -0.038695283
-0.14861009 -0.23275368 -1.0399097 -0.9509698 -0.95580906 -0.99387634 -0.9894728 -0.72032505
00000000: 274d a5be fdc7 c1be d1bb b7be 551d e3be
00000010: 3525 f6be d4f5 96be 6228 81be 1062 8bbe
00000020: 5f55 b3be ff54 bcbe 571f 99be c8b1 8fbe
00000030: 77b1 86be 16a3 9cbe db06 c9be 0414 bcbe
00000040: 0ef5 7cbe 2b31 97be 9528 c4be 04a6 f8be
00000050: a502 edbe f17b d8be 1d31 dfbe 50ee 07bf
00000060: 5b29 24bf 2f37 3ebe e2ac 0ebe 9e34 87bd
00000070: d3ac 09be 243a 3fbe 7e42 76be 99ba 04be
00000080: 7adb b5bd 5072 1fbe 134a 65be 8a08 8abe
00000090: 3773 5fbe 812e 41be 44d3 1dbe d697 84be
000000a0: 4520 9abe 52b9 6cbe 655a 73be bce9 80be
000000b0: 3543 a4be 0f40 d3be 624e b9be 1dd3 afbe
000000c0: c3b2 b1be 4d3f c4be c543 bfbe f8c5 f5be
000000d0: 012f 08bf ad6c 0bbf 5af1 edbe 6bc0 b9be
000000e0: 9106 eabe c29e 0abf c875 16bf 10c4 08bf
000000f0: 62bd bfbe ff2c f1be b314 03bf 5002 0abf
00000100: 1711 d0be d26a c9be 4b53 efbe dbeb 05bf
00000110: a20e d2be af52 b8be 0b1e 8fbe da92 d4be
00000120: 0c15 f2be c88d b5be f7a2 5dbe 4cdc 96be
00000130: 2a4b 9bbe 08ba e3be df32 dfbe aab3 e1be
00000140: 915d a2be 8a7c 9cbe edfd b7be e4e8 e8be
00000150: 8a47 e2be 488c 73be 6ee1 5fbe 1843 96be
00000160: 54af d2be a52b bfbe 89b0 95be c779 40be
00000170: 6297 99be 6644 b7be 1b77 b9be 714e b6bd
00000180: 38af 15bd fcf5 0dbe aa6f 3fbe 3668 11be
00000190: 8699 54be 1cee bbbe fac6 d1be 5971 cbbe
000001a0: db8b d0be e21c 93be aa2a bebe 7d5a d6be
000001b0: 00e3 c9be 1c08 c2be 3284 88be 4ea5 86be
000001c0: 1a59 8dbe 527c 92be f2db a1be 1249 95be
000001d0: e38b a5be 0188 97be f045 abbe 2963 96be
000001e0: 3f3c 1fbe 6f65 8abe 58b7 7dbe 8672 9dbe
000001f0: 3b16 7dbe 3f16 c73c 2837 62bc d402 bebd
00000200: 8e5f efbd 55a0 aebd 1bf1 923d 882b 333c
00000210: 659b 2b3d 6ba5 8cbd 8f72 f4bc bfa8 173e
00000220: bc9d 723d 3c4f 253d 61f6 bfbc 4c6c 853b
00000230: 82d2 f83d 4c6b 953d 514a 933d b254 c63d
00000240: 34cf ba3c b554 2c3e a351 db3d 1ab5 dc3d
00000250: 9629 183e 8096 fe3d 3bc7 77bc 184a 55bd
00000260: 3eef c8bd a6f3 5cbd 06bf 00be e861 c6bd
00000270: 6288 bdbd 0fda 1bbe dece 19be dd08 05be
00000280: c158 18bd 9aa2 35bc ee1d 66bd 5e72 e2bd
00000290: 73e4 fbbd b854 093d 3976 6c3d cba7 423d
000002a0: 724f 7e3c 2325 f5bc 687c cc3c 5ccc 343e
000002b0: 75e5 053e 0e61 b73d 1ddc cb3c e98a 2dbf
000002c0: 9878 1abf 61fe 20bf d0ea 1ebf e1d6 1fbf
000002d0: 8c4c aebe 5a2a 67be dd93 83be 0e28 89be
000002e0: 7532 85be debf fbbd 62d9 e7bd c959 adbd
000002f0: fbe1 08be a333 2dbe 0b9d 74be 0a10 f5bd
00000300: d1e9 59bd 8f6d 01be b3b0 ddbd 077e f8bd
00000310: b8ab d8bd 9384 1bbd 210e debc e38c 20be
00000320: 3957 f7be bf58 06bf a7f7 f7be d5cd 1bbf
00000330: 9b23 04bf d5c5 eebe 29f9 eabe 045a 00bf
00000340: 02a0 18bf ce5e 1abf 9786 17bf f637 0cbf
00000350: aac9 2bbf f913 31bf 6a45 3dbf a00c 29bf
00000360: f5dc 11bf d50e 18bf 3779 33bf aa1b 42bf
00000370: 1686 23bf 23f6 04bf 156f eebe 5163 17bf
00000380: ed04 27bf 4081 afbe 57f8 babe 7d74 a0be
00000390: a41a cbbe eae1 d4be 6deb a3be 5f56 75be
000003a0: 4f86 64be 7e32 88be c64d a3be 7259 80be
000003b0: e904 64be 03ca 2abe 74d7 8ebe 58e9 89be
000003c0: f4fd acbe 5427 46be 24fa 12be ee56 4fbe
000003d0: 958c 96be b975 4ebe 3581 79bd f27e 1ebd
000003e0: 3e2d 18be fb56 6ebe c31b 85bf c272 73bf
000003f0: e7af 74bf ae6e 7ebf 174e 7dbf 3967 38bf

bias f4 [32]
-0.0139324535 -0.029253678 0.057660144 -0.026810909 0.056959707 0.008491612 -0.045032006 0.038306687
-0.028930385 -0.044672683 -0.07557278 -0.056737192 -0.0120055 -0.019264711 -0.018827073 0.014261878
0.007480654 -0.043709185 -0.037883762 0.0023631314 0.020523863 0.013812536 -0.015291881 0.07093398
-0.026580967 -0.043076664 -0.021440942 -0.016764432 0.034299556 0.02262397 -0.032088075 -0.0012358549
00000000: f244 64bc 69a5 efbc 0b2d 6c3d 8da2 dbbc
00000010: 954e 693d 6720 0b3c 7b73 38bd 79e7 1c3d
00000020: 6aff ecbc b4fa 36bd e7c5 9abd 4265 68bd
00000030: b7b2 44bc 07d1 9dbc 3c3b 9abc a7aa 693c
00000040: 4620 f53b 6708 33bd 012c 1bbd c4de 1a3b
00000050: a921 a83c fa4d 623c cc8a 7abc d645 913d
00000060: 54c0 d9bc 2871 30bd eaa4 afbc 9055 89bc
00000070: b17d 0c3d e755 b93c c96e 03bd 69fc a1ba

weight f4 [64, 32, 5, 5]
0.5282589 0.25541514 -0.06886818 -0.5254994 -0.976323 0.6268147 0.30498102 -0.09698148
-0.59889156 -1.0853003 0.57941514 0.33526537 -0.05419238 -0.507138 -1.0172386 0.4551424
0.21254571 -0.008373474 -0.089940645 -0.5248617 0.11137124 -0.05202255 -0.0127923405 0.14271356
0.083351746 0.87205786 0.4344558 0.0078390045 -0.5366931 -1.2310219 0.76155484 0.35526597
-0.0047476925 -0.49491403 -1.308165 0.5808179 0.25835076 -0.02150629 -0.518285 -1.2923836
0.4366298 0.12930143 -0.1805754 -0.51187366 -0.9407845 0.36598122 -0.08421909 -0.35832593
-0.55616176 -0.5655109 -0.92054594 -0.39589825 0.11848634 0.47268707 0.69913214 -1.0644064
-0.48594946 0.0077239787 0.32468063 0.55822223 -1.0678397 -0.5478303 -0.062161762 0.27089632
0.44214916 -0.9197858 -0.4715244 -0.03883444 0.16847166 0.261465 -0.57339555 -0.24985705
0.03261488 0.17921647 0.15270135 0.9099288 0.66494966 0.5847159 -0.088895366 0.048583705
0.87754226 0.58245474 0.51502734 -0.13011761 -0.32645097 0.6012399 0.38254368 0.29913026
0.03467977 -0.05520575 0.33138257 0.13874151 -0.122590184 -0.029802358 0.29180554 0.13933025
-0.2357884 -0.7207051 -0.544606 0.108122006 -0.23997942 0.09431531 0.11097794 0.20070347
0.47987798 -0.7477438 -0.046875272 0.052175254 0.13205978 0.36189497 -0.9416071 -0.2584783
-0.025896 0.17077921 0.45351523 -0.8139012 -0.14811039 0.07647536 0.21285829 0.59714
-0.41053772 0.12608294 0.37951404 0.4273709 0.5799601 -1.418294 -0.8380853 -0.10589533
0.6204776 1.0357848 -0.8848433 -0.61981606 -0.20596233 0.35412124 0.8436515 -0.39776355
-0.3279435 -0.04455563 0.2605391 0.56884354 -0.19469833 -0.18457794 0.024605572 0.13643768
0.104771465 -0.12807404 -0.12060004 0.020245789 0.076132126 -0.10019529 0.39232922 0.21770152
0.047452677 -0.2996041 -0.78330475 0.34669408 0.10405157 3.5191784e-05 -0.3047117 -0.77379006
0.27936044 0.012318383 -0.0045338045 -0.1975049 -0.69289297 0.24322644 0.019733446 0.09810585
0.028039906 -0.44366476 0.32393903 0.085999236 0.24397138 0.19020487 -0.03970885 1.004625
0.4457086 -0.09837311 -0.60236037 -1.1235986 0.9943121 0.45436525 -0.10319255 -0.63390034
-1.0545052 0.925826 0.34371665 -0.14397289 -0.782108 -1.1143409 0.78810036 0.2606947
-0.19733368 -0.83928496 -1.0668602 0.76384497 0.21946163 -0.41591462 -0.9677421 -0.99145985
0.45062128 0.22132733 -0.14757141 -0.5417419 -0.46999046 0.29613152 0.16883728 -0.17100509
-0.508256 -0.46971524 0.13487187 0.09760172 -0.12149039 -0.5011668 -0.4385118 0.08785597
0.023595726 -0.11692899 -0.34549108 -0.13807221 0.04403433 -0.096343406 -0.2922384 -0.3046823
0.18573514 0.3752967 0.44785517 0.47197643 0.44603768 0.5264458 -0.15970667 0.12730262
0.31418335 0.5180079 0.68555826 -0.5062738 -0.14634661 0.1604201 0.49065897 0.62166065
-0.55896676 -0.26996344 0.17978644 0.38689312 0.44339108 -0.61822015 -0.3423632 0.06258899
0.30337688 0.26946557 -1.5086921 -1.0088081 -0.1150076 0.109161615 -0.18283801 -0.76987255
00000000: fa3b 073f c6c5 823e c30a 8dbd 2187 06bf
00000010: 4ef0 79bf ee76 203f 7926 9c3e 3a9e c6bd
00000020: f550 19bf 1feb 8abf 8d54 143f e7a7 ab3e
00000030: d4f8 5dbd ccd3 01bf e034 82bf 6d08 e93e
00000040: 95a5 593e e530 09bc cd32 b8bd 565d 06bf
00000050: 9b16 e43d 9915 55bd f796 51bc 8123 123e
00000060: 52b4 aa3d 2f3f 5f3f fe70 de3e 2b6f 003c
00000070: b864 09bf 2092 9dbf 42f5 423f 6ce5 b53e
00000080: 8892 9bbb 5f65 fdbe f371 a7bf 7bb0 143f
00000090: 8d46 843e f62d b0bc 53ae 04bf d36c a5bf
000000a0: f18d df3e 9867 043e c2e8 38be 270a 03bf
000000b0: 41d7 70bf e461 bb3e 0f7b acbd 7f76 b7be
000000c0: 9e60 0ebf 53c5 10bf e6a8 6bbf 2db3 cabe
000000d0: f7a8 f23d 0a04 f23e 53fa 323f 783e 88bf
000000e0: 5ece f8be 6e19 fd3b 8a3c a63e a7e7 0e3f
000000f0: f9ae 88bf 9b3e 0cbf 559d 7ebd ecb2 8a3e
00000100: 6061 e23e 1577 6bbf a56b f1be dd10 1fbd
00000110: d683 2c3e bede 853e 0dca 12bf 87da 7fbe
00000120: 2e97 053d 8684 373e be5d 1c3e 18f1 683f
00000130: 243a 2a3f f1af 153f c60e b6bd b5ff 463d
00000140: 9ca6 603f c11b 153f d5d8 033f 8d3d 05be
00000150: 9524 a7be dcea 193f c4dc c33e 9a27 993e
00000160: 600c 0e3d 6d1f 62bd faaa a93e 4112 0e3e
00000170: 9010 fbbd 1324 f4bc 8967 953e 97ac 0e3e
00000180: 8472 71be 2180 38bf 4c6b 0bbf 126f dd3d
00000190: 2abd 75be 6328 c13d 6748 e33d 3685 4d3e
000001a0: 91b2 f53e 236c 3fbf 4900 40bd b8b5 553d
000001b0: ae3a 073e 4c4a b93e 2a0d 71bf 4557 84be
000001c0: d923 d4bc bfe0 2e3e 2633 e83e d45b 50bf
000001d0: 40aa 17be 1d9f 9c3d 86f7 593e 2bde 183f
000001e0: 0032 d2be e31b 013e aa4f c23e 5cd0 da3e
000001f0: 4478 143f a88a b5bf c28c 56bf a7df d8bd
00000200: 9fd7 1e3f 9994 843f 1785 62bf 44ac 1ebf
00000210: cae7 52be 614f b53e 8bf9 573f aaa7 cbbe
00000220: 36e8 a7be f77f 36bd 6265 853e bb9f 113f
00000230: 005f 47be 0002 3dbe a091 c93c 52b6 0b3e
00000240: 6c92 d63d d725 03be 27fd f6bd 7fda a53c
00000250: 29eb 9b3d 3033 cdbd 60df c83e 26ed 5e3e
00000260: bd5d 423d b565 99be a986 48bf e381 b13e
00000270: fd18 d53d e49a 1338 2c03 9cbe 1b17 46bf
00000280: 5508 8f3e 0bd3 493c 4f90 94bb b93e 4abe
00000290: 6f61 31bf 5a10 793e 09a8 a13c b8eb c83d
000002a0: f2b3 e53c 0728 e3be 56db a53e 5e20 b03d
000002b0: a2d3 793e 11c5 423e bfa5 22bd 8d97 803f
000002c0: eb33 e43e d777 c9bd 4a34 1abf 14d2 8fbf
000002d0: 3d8b 7e3f 90a2 e83e 9e56 d3bd 4b47 22bf
000002e0: 07fa 86bf ef02 6d3f a1fb af3e a16d 13be
000002f0: 3b38 48bf b9a2 8ebf f2c0 493f c779 853e
00000300: d711 4abe 61db 56bf e08e 88bf 588b 433f
00000310: 8dba 603e c3f2 d4be f2bd 77bf 50d0 7dbf
00000320: d5b7 e63e a2a3 623e f61c 17be 99af 0abf
00000330: 97a2 f0be 8d9e 973e aee3 2c3e f51b 2fbe
00000340: 111d 02bf 847e f0be da1b 0a3e 69e3 c73d
00000350: f4cf f8bd 784c 00bf 9e84 e0be d5ed b33d
00000360: d34b c13c 7778 efbd 35e4 b0be cd62 0dbe
00000370: 575d 343d b14f c5bd 46a0 95be 52ff 9bbe
00000380: 5a31 3e3e e426 c03e 464d e53e e5a6 f13e
00000390: 0d5f e43e 27c5 063f 258a 23be 9e5b 023e
000003a0: a4dc a03e 2a9c 043f bf80 2f3f 299b 01bf
000003b0: e3db 15be 2b45 243e a737 fb3e 2725 1f3f
000003c0: 7218 0fbf a638 8abe f019 383e db16 c63e
000003d0: 2804 e33e ad43 1ebf 3b4a afbe a82e 803d
000003e0: 3754 9b3e 64f7 893e d31c c1bf a020 81bf
000003f0: 1b89 ebbd 2090 df3d e339 3bbe 5e16 45bf

bias f4 [64]
-0.03239561 0.0023714222 0.0035269994 -0.00095971266 -0.0034309987 -0.013753273 -0.0047822227 -0.017399177
-0.037014425 -0.029227477 -0.037838843 0.027309168 0.025239179 0.029015975 0.015654685 -0.049653642
0.018968154 -0.028691866 0.029567465 -0.033007577 0.021430735 0.021476872 0.024975823 -0.020421248
0.02551543 -0.0015437795 0.023063187 0.01776631 0.024970602 -0.0033338638 -0.0069435607 0.00018982982
-0.027957208 0.01423275 -0.020746784 0.013289209 0.020563463 -0.019819079 0.0055972035 0.0032114768
0.04729562 0.022112992 0.0069174324 -0.0084661525 -0.014566592 -0.013081959 -0.014986909 -0.0060993335
0.016781082 -0.025253218 -0.04499028 -0.027472306 0.014976065 -0.01994326 0.020201322 -0.008319983
0.026180001 -0.012795895 0.025696063 0.052479617 0.016108759 -0.011082701 -0.023399023 0.034159154
00000000: 42b1 04bd dd69 1b3b 3b25 673b 3a95 7bba
00000010: 9bda 60bb 6855 61bc 31b4 9cbb b888 8ebc
00000020: 709c 17bd 766e efbc e7fc 1abd 7ab7 df3c
00000030: 65c2 ce3c e9b2 ed3c 413e 803c 9e61 4bbd
00000040: 1a63 9b3c 340b ebbc 7837 f23c f432 07bd
00000050: 828f af3c 44f0 af3c 199a cc3c 764a a7bc
00000060: bc05 d13c a558 caba 02ef bc3c a78a 913c
00000070: 268f cc3c f47c 5abb cf86 e3bb 0e0d 4739
00000080: 8406 e5bc 7b30 693c 29f5 a9bc fcba 593c
00000090: b574 a83c 9f5b a2bc bf68 b73b a477 523b
000000a0: 0db9 413d 4e26 b53c a1ab e23b 9eb5 0abc
000000b0: b7a8 6ebc b755 56bc a78b 75bc ebdc c7bb
000000c0: 7b78 893c d6df cebc ba47 38bd 9a0d e1bc
000000d0: 2b5e 753c 0c60 a3bc 3e7d a53c 8a50 08bc
000000e0: 7177 d63c e0a5 51bc 8d80 d23c def4 563d
000000f0: 84f6 833c 3894 35bc 4faf bfbc 78ea 0b3d

weight f4 [128, 64, 3, 3]
-0.4312142 -0.25339833 0.109727584 -0.58641505 -0.19976057 0.1363663 -0.45806822 -0.3080172
0.17968911 -1.1377631 -1.1913689 -0.84056824 -0.92000145 -0.8237743 -0.8983269 -0.80253917
-0.9994481 -1.1005043 -0.09912301 -0.06566728 0.1608398 -0.16456485 -0.25440523 -0.17743741
-0.11858337 -0.33704114 -0.2754742 -0.67273855 -0.5706728 -0.94089985 -0.92155695 -0.7424018
-1.0975915 -1.1973441 -1.0825605 -1.416357 -0.10231617 -0.09028031 -0.25301838 0.0064134994
-0.08162865 -0.22382718 0.07120522 -0.1071189 -0.25554425 -0.18191566 -0.07981691 0.14163241
-0.38452104 -0.1086452 0.061272338 -0.41018915 0.19939287 0.051784813 -0.2078564 0.003352588
-0.15933968 0.114676 0.2103749 0.013677108 0.15969029 0.09650505 0.10775374 -0.11767863
0.062197156 -0.089257985 0.008171949 0.06571618 -0.08634886 0.10250114 -0.06374144 -0.17898197
-0.3671219 -0.34172562 -0.047515158 -0.35955644 -0.49293518 -0.1989322 0.1539852 0.095320486
0.3007219 0.21641281 0.28737506 0.42726725 0.07973725 0.09186795 0.17231919 0.15409034
0.17066316 0.23655997 1.0188102 0.60741407 1.109088 0.92727447 0.45829105 0.97344756
0.83266914 0.45618996 0.8938197 0.2555792 0.20043172 -0.039011113 0.5839475 0.53313833
0.25754622 0.92868775 0.78491944 0.6583838 -0.6897931 -0.8353498 -0.6233299 -0.40411842
-0.48932773 -0.3897127 0.2147569 0.23186903 0.22245672 -0.5689249 -0.37042293 -0.7383396
-0.61317784 -0.3026303 -0.65902334 -1.1424214 -0.7598187 -0.97817737 -0.31222284 -0.32268578
-0.73729384 -0.22505838 -0.17050166 -0.3723813 -0.095986605 -0.029129794 -0.0881873 0.08534966
-0.027490582 -0.37873158 -0.15437616 -0.3231491 -0.48272255 -0.11386668 -0.30104998 -0.43412635
-0.2940263 0.05675734 0.051866334 -0.14493048 0.33290777 0.37106654 0.04115729 0.31028253
0.46833804 -0.4649815 -0.3672436 -0.21624106 -0.26460838 -0.16724306 -0.15759104 -0.4192544
-0.5369925 -0.28281653 -0.4855179 -0.4662535 -0.379782 -0.017107677 -0.09556912 -0.23548688
-0.08271974 -0.064943716 -0.6588495 -0.09837003 -0.19891208 -0.32980335 -0.03127406 -0.11039766
-0.23756053 -0.06465892 -0.16703342 -0.36677068 0.08126437 0.12781458 0.27771875 0.078828946
0.2552026 0.14063644 -0.044729587 0.15660645 0.14873534 -0.026884023 0.17029834 0.07430641
-0.16564083 0.01831268 -0.17173061 -0.47497228 -0.3456103 -0.5750154 1.0466484 0.95594245
0.56125957 0.3658308 0.55724525 0.32872322 0.19542596 0.5823988 0.33261678 -0.69004756
-0.295135 -0.30625284 -0.0845515 0.11531897 -0.24576229 -0.8698651 -0.6840384 -0.9755545
-0.7359584 -0.23475428 0.35212013 -0.35122395 -0.28276923 0.031220691 -0.25068545 -0.36236995
0.102717936 -0.41800907 0.14446963 0.12374452 -0.87509996 -0.23842148 0.1414542 -1.0317286
-0.39403582 0.117176756 0.20824772 -0.12620237 -0.094566874 -0.00904539 -0.29709932 0.37383956
-0.206143 -0.36582443 0.28846493 -0.51797545 -0.24560449 -0.52749574 -0.14547347 -0.15568408
-0.42071652 -0.05163531 -0.22625338 -0.20490187 -0.34270525 0.16992699 0.2788525 -0.53752446
00000000: 1cc8 dcbe 6dbd 81be dbb8 e03d 4c1f 16bf
00000010: 098e 4cbe 9ba3 0b3e eb87 eabe 6eb4 9dbe
00000020: 6c00 383e 39a2 91bf c77e 98bf 7b2f 57bf
00000030: 3785 6bbf dfe2 52bf c0f8 65bf 3573 4dbf
00000040: d5db 7fbf 53dd 8cbf 0101 cbbd 917c 86bd
00000050: 30b3 243e b083 28be 6741 82be 27b2 35be
00000060: d6db f2bd a890 acbe f40a 8dbe 9838 2cbf
00000070: 9d17 12bf d0de 70bf 28eb 6bbf 0b0e 3ebf
00000080: e17d 8cbf 9242 99bf 5891 8abf 304b b5bf
00000090: 248b d1bd e2e4 b8bd a08b 81be 5528 d23b
000000a0: ec2c a7bd f432 65be 0bd4 913d 2761 dbbd
000000b0: b2d6 82be 1948 3abe 0c77 a3bd 1608 113e
000000c0: f1df c4be 6081 debd b4f8 7a3d 5004 d2be
000000d0: a52d 4c3e 501c 543d 4fd8 54be 18b7 5b3b
000000e0: f129 23be 40db ea3d 856c 573e f315 603c
000000f0: da85 233e 71a4 c53d fead dc3d 7e01 f1bd
00000100: 72c2 7e3d e4cc b6bd a3e3 053c 3496 863d
00000110: acd7 b0bd 1eec d13d df8a 82bd 0d47 37be
00000120: 67f7 bbbe a9f6 aebe 419f 42bd c817 b8be
00000130: 0062 fcbe e2b4 4bbe 4cae 1d3e 6337 c33d
00000140: 39f8 993e 529b 5d3e d322 933e c6c2 da3e
00000150: 494d a33d 4425 bc3d 7174 303e dcc9 1d3e
00000160: 53c2 2e3e c73c 723e 5f68 823f 7d7f 1b3f
00000170: 98f6 8d3f dc61 6d3f 20a5 ea3e dc33 793f
00000180: ce29 553f bb91 e93e 5ed1 643f 47db 823e
00000190: f93d 4d3e 1eca 1fbd 957d 153f c17b 083f
000001a0: 19dd 833e 7bbe 6d3f 7bf0 483f d78b 283f
000001b0: 4896 30bf 7cd9 55bf 8c92 1fbf 9ce8 cebe
000001c0: 2a89 fabe 6c88 c7be 3ce9 5b3e 136f 6d3e
000001d0: b2cb 633e 10a5 11bf 13a8 bdbe d303 3dbf
000001e0: 39f9 1cbf 5cf2 9abe c1b5 28bf dd3a 92bf
000001f0: 7a83 42bf d569 7abf acdb 9fbe 1237 a5be
00000200: 4abf 3cbf b475 66be fd97 2ebe c3a8 bebe
00000210: a094 c4bd 9ba1 eebc 8b9b b4bd cdcb ae3d
00000220: ee33 e1bc 1be9 c1be c914 1ebe cd73 a5be
00000230: 6927 f7be ef32 e9bd 3923 9abe cf45 debe
00000240: 9d8a 96be 627a 683d cb71 543d a868 14be
00000250: e372 aa3e 6ffc bd3e 8c94 283d 5add 9e3e
00000260: 01ca ef3e 0e12 eebe 5a07 bcbe 4c6e 5dbe
00000270: c07a 87be c441 2bbe 8c5f 21be 83a8 d6be
00000280: 5778 09bf 54cd 90be cd95 f8be c7b8 eebe
00000290: c972 c2be 6625 8cbc beb9 c3bd 7923 71be
000002a0: f868 a9bd 3601 85bd 5caa 28bf 3a76 c9bd
000002b0: 9caf 4bbe fcdb a8be 3b19 00bd 2b18 e2bd
000002c0: 1143 73be e56b 84bd cf0a 2bbe 5ec9 bbbe
000002d0: ef6d a63d d3e1 023e 2731 8e3e 1271 a13d
000002e0: eaa9 823e 0003 103e 5f36 37bd 715d 203e
000002f0: 144e 183e e23b dcbc b062 2e3e f62d 983d
00000300: c09d 29be 7904 963c 26da 2fbe 912f f3be
00000310: d5f3 b0be 3634 13bf 93f8 853f a5b8 743f
00000320: b5ae 0f3f 2d4e bb3e a0a7 0e3f 694e a83e
00000330: be1d 483e 1618 153f bf4c aa3e f5a6 30bf
00000340: ef1b 97be 2ccd 9cbe 5629 adbd 5a2c ec3d
00000350: 1ca9 7bbe 7baf 5ebf 241d 2fbf f1bd 79bf
00000360: c567 3cbf 6d63 70be 1749 b43e a0d3 b3be
00000370: 21c7 90be 89c2 ff3c d859 80be 8e88 b9be
00000380: c85d d23d 4905 d6be d9ef 133e c46d fd3d
00000390: 8d06 60bf c324 74be 5fd9 103e af0f 84bf
000003a0: 10bf c9be 5efa ef3d e43e 553e 323b 01be
000003b0: 47ac c1bd 1e33 14bc 671d 98be e667 bf3e
000003c0: 2717 53be 574d bbbe adb1 933e 0a9a 04bf
000003d0: be7f 7bbe f609 07bf fff6 14be a66b 1fbe
000003e0: 2868 d7be 8c7f 53bd f7ae 67be ccd1 51be
000003f0: 1077 afbe 5701 2e3e c1c5 8e3e 349b 09bf

bias f4 [128]
0.005853045 0.01901592 -0.044408247 -0.029724266 -0.018362204 0.008884779 -0.06774691 -0.025829794
-0.010096073 0.024931801 -0.034690224 -0.023353249 -0.030811263 -0.039131317 -0.009775747 0.033044565
-0.034794018 0.0074686105 0.011441803 -0.025203623 0.0012748716 0.0047658556 0.015539226 -0.015672999
-0.019925795 -0.061921027 -0.044315122 -0.04724143 -0.01314278 0.01770487 -0.04044043 -0.05000936
0.0072306525 0.050010666 -0.014302372 -0.021383934 -0.05732113 0.019937383 -0.014266747 -0.0047740927
0.028654901 -0.0117887305 0.021318395 -0.06434566 -0.04769555 -0.03719503 -0.018188618 -0.034241326
-0.011690071 -0.038735285 -0.018240632 0.012364474 -0.05675809 -0.012914624 -0.012078343 -0.011086997
0.028188817 -0.013880914 0.011295455 0.042471092 0.02013982 -0.056316067 -0.026345294 -0.036803734
-0.027808407 0.02298263 0.04391317 -0.028256005 -0.025642063 -0.052291814 0.024010992 -0.04104736
-0.011490433 -0.055598866 -0.05983615 0.0033011578 0.022226827 -0.006867129 -0.049145985 -0.05972889
-0.010537205 0.01813422 0.010458183 -0.016738562 0.037448324 -0.03094781 -0.0246593 0.022599706
-0.035214674 -0.028332423 -0.052116312 0.0094642285 -0.019089457 -0.046469375 -0.04698068 -0.016218377
-0.047818728 0.003861986 -0.04579158 -0.019932613 -0.06523469 -0.027432049 -0.02532783 0.033719596
0.012590543 0.02175302 0.015039974 -0.06887787 -0.011344603 0.0020017303 -0.012287528 0.025467083
0.022706717 0.030395975 -0.031767916 0.013818792 -0.036476444 -0.033966936 0.060895436 0.022020126
-0.0022763023 -0.031132154 0.00032625208 -0.0032427362 0.01730699 -0.008198075 -0.035972748 -0.02510602
00000000: e6ca bf3b 46c7 9b3c 6ce5 35bd 4e80 f3bc
00000010: 556c 96bc 7791 113c e4be 8abd 0199 d3bc
00000020: 006a 25bc c73d cc3c 5617 0ebd 504f bfbc
00000030: e767 fcbc 2948 20bd 742a 20bc bd59 073d
00000040: 2c84 0ebd 3fbb f43b 6676 3b3c d477 cebc
00000050: 9819 a73a e52a 9c3b 3d98 7e3c a964 80bc
00000060: 6c3b a3bc e7a0 7dbd c683 35bd 3b80 41bd
00000070: d154 57bc ce09 913c dda4 25bd 9dd6 4cbd
00000080: 1cef ec3b fcd7 4c3d 7f54 6abc 5c2d afbc
00000090: 90c9 6abd b953 a33c 13bf 69bc fe6f 9cbb
000000a0: afbd ea3c 8525 41bc eaa3 ae3c a8c7 83bd
000000b0: 695c 43bd d159 18bd 4c00 95bc a240 0cbd
000000c0: b687 3fbc e4a8 1ebd 616d 95bc 5d94 4a3c
000000d0: 2c7b 68bd dc97 53bc 3ee4 45bc 3ca6 35bc
000000e0: 3cec e63c c66c 63bc 9210 393c 2bf6 2d3d
000000f0: 44fc a43c adab 66bd 16d2 d7bc 83bf 16bd
00000100: 75ce e3bc 1246 bc3c 4cde 333d 2379 e7bc
00000110: 4e0f d2bc f12f 56bd b3b2 c43c 4721 28bd
00000120: 5e42 3cbc a3bb 63bd c016 75bd 3d58 583b
00000130: 0915 b63c a705 e1bb 4d4d 49bd 48a6 74bd
00000140: 3ea4 2cbc 378e 943c cc58 2b3c 4f1f 89bc
00000150: 6a63 193d 4386 fdbc 4d02 cabc 0523 b93c
00000160: 433d 10bd 6619 e8bc ea77 55bd da0f 1b3c
00000170: 7e61 9cbc ac56 3ebd d06e 40bd 67dc 84bc
00000180: 92dd 43bd 6019 7d3b f48f 3bbd b849 a3bc
00000190: c499 85bd 2db9 e0bc 4f7c cfbc 8f1d 0a3d
000001a0: 9148 4e3c 6433 b23c 396a 763c d70f 8dbd
000001b0: b7de 39bc 762f 033b a151 49bc 58a0 d03c
000001c0: 7003 ba3c fb00 f93c 131f 02bd 3768 623c
000001d0: 5368 15bd ea20 0bbd 7e6d 793d 8d63 b43c
000001e0: 042e 15bb dc08 ffbc d00c ab39 1684 54bb
000001f0: 64c7 8d3c 3851 06bc 2958 13bd 24ab cdbc

weight f4 [96, 128]
-0.10963869 0.24553269 0.13067861 0.51692885 -0.41698596 -0.87061834 0.7846654 -0.30104578
-0.9133276 0.11002678 0.6392497 -0.4718906 -1.0660218 0.1958979 0.62311167 0.22638072
0.972462 0.24781953 0.46871337 0.8529305 -1.7805698 0.27667707 -0.13124758 -1.9800996
0.4341538 0.56999236 0.4370007 0.20877466 0.59508616 -0.047724847 0.42814934 -0.56810874
0.2875046 -0.78819376 0.31426346 -0.18486707 0.46072996 -0.28594014 -0.24553496 0.33981764
-0.5846345 0.09640199 -0.019318298 0.010167422 0.10579648 -0.28853646 -0.009810725 -0.0037274745
-0.15144064 0.13581361 0.28341183 -0.43760464 0.00090897625 0.35723734 -0.8591523 0.4560395
-0.7984728 0.07236819 0.025116328 -0.11955034 -1.4402382 0.32649925 -0.13861234 0.2212861
-0.07507904 0.118972786 -0.13505687 0.6232802 -0.30634847 -0.12226221 0.9200053 -1.4192874
-0.013468745 0.41283318 0.25688648 -0.5036491 -1.311973 -0.18266392 1.1734406 -0.48231554
0.56008697 0.36642155 0.16168235 -0.09312647 -0.11515375 -1.5530487 0.20705493 0.5097514
0.11616959 -1.5758004 0.49943158 -0.7839982 0.33940548 -0.043899167 0.40082625 0.16750433
0.9483863 0.233002 -0.17483655 -0.017310938 0.01720244 -0.38893524 -0.069275804 -0.21799962
-0.1262754 0.6010294 -1.1764594 0.63722116 -0.75087523 0.13846089 0.71903706 -0.04263072
-0.23843655 -1.1989379 1.2352682 -0.01059797 0.763113 0.22629094 -0.08238164 0.34805
-0.2140451 -1.454425 -0.17670469 -0.66913855 0.4557557 -2.5556588 -0.22121306 0.14318985
-0.5003915 0.322706 0.59899795 -0.19214521 0.013906729 -0.19754314 0.5941847 0.18099524
0.06920433 -0.20621642 -0.54308933 0.6432268 -0.14565317 -0.6823477 -0.70405215 -0.26453593
0.66129804 0.45242256 0.11173662 0.25355196 -0.21509029 -0.7522317 0.14131364 0.079523236
-0.5425939 0.7364003 0.19020426 0.78281164 0.509223 -0.40288663 0.22361127 -0.761118
-0.607559 -0.5796087 0.58615685 0.38166353 -0.77741396 0.83640313 0.14973694 0.0056471005
-0.3385209 -0.27410722 0.48050603 -0.053527594 0.309454 0.7799509 -0.8991034 -0.10344852
-0.21542358 -0.026095852 -0.0055312994 -0.65866905 0.18586862 0.22162694 -0.13479479 -0.29458278
-0.004098807 0.48904836 -0.33542994 -0.34687382 0.40195775 -0.5492829 0.5062653 -0.089394
-0.78661525 -0.7495851 -0.0434533 0.24202235 0.13337384 0.17781472 -0.5050545 0.12730983
0.18672892 0.05105184 -0.061368093 -0.52208465 0.5843294 -0.17001128 0.81419146 0.13510774
-0.42671564 -0.46747667 -0.42294478 -0.20884824 -0.72067875 0.16325021 0.3745747 0.47809634
-0.03624688 0.5739055 0.16808498 -0.5653096 -0.63019395 0.7630578 -0.04833635 0.23968503
0.5992813 -0.005754206 0.56483734 0.13258176 0.30386534 -0.6508042 -0.13430855 0.15626
-0.020249482 0.46825835 -0.2949311 0.543634 -0.62371147 -0.27617306 -0.31155106 -0.4455023
0.0924148 -0.050456874 0.6480425 0.11192872 0.95661175 0.42340326 -1.0323118 0.5538798
0.062418565 0.46923378 -0.2905209 0.31165376 -0.2033534 0.31780124 -0.2453544 -0.20521712
00000000: 408a e0bd ec6c 7b3e 9dd0 053e 7355 043f
00000010: 2f7f d5be d8e0 5ebf d5df 483f ac22 9abe
00000020: d6cf 69bf b855 e13d dea5 233f a59b f1be
00000030: 6773 88bf 7699 483e 3f84 1f3f 59d0 673e
00000040: 45f3 783f 67c4 7d3e 33fb ef3e a759 5a3f
00000050: b6e9 e3bf 9ea8 8d3e c465 06be e773 fdbf
00000060: 6849 de3e 05eb 113f 8ebe df3e 06c9 553e
00000070: 9157 183f 217b 43bd 6436 db3e 936f 11bf
00000080: ce33 933e 11c7 49bf 24e7 a03e cb4d 3dbe
00000090: cce4 eb3e bf66 92be 846d 7bbe 94fc ad3e
000000a0: 9baa 15bf 686e c53d 6841 9ebc 4295 263c
000000b0: d3ab d83d 0dbb 93be 2abd 20bc a548 74bb
000000c0: 4113 1bbe b912 0b3e 5b1b 913e b70d e0be
000000d0: 5d48 6e3a d0e7 b63e 68f1 5bbf 027e e93e
000000e0: b768 4cbf c635 943d c2c0 cd3c cfd6 f4bd
000000f0: ba59 b8bf e92a a73e 65f0 0dbe d398 623e
00000100: 0ac3 99bd 01a8 f33d 594c 0abe 4b8f 1f3f
00000110: b5d9 9cbe 9c64 fabd 7885 6b3f 36ab b5bf
00000120: 03ac 5cbc df5e d33e a086 833e 26ef 00bf
00000130: bbee a7bf 400c 3bbe 4d33 963f 10f2 f6be
00000140: dc61 0f3f 9b9b bb3e 0f90 253e 17b9 bebd
00000150: bbd5 ebbd 4dca c6bf 3506 543e 117f 023f
00000160: 52ea ed3d d4b3 c9bf 7fb5 ff3e 1bb4 48bf
00000170: 8ec6 ad3e 9dcf 33bd 1939 cd3e 4186 2b3e
00000180: 72c9 723f 1498 6e3e 5a08 33be abcf 8dbc
00000190: 22ec 8c3c 8522 c7be 79e0 8dbd 4b3b 5fbe
000001a0: 574e 01be 10dd 193f 3996 96bf ed20 233f
000001b0: 5c39 40bf b1c8 0d3e d012 383f 8d9d 2ebd
000001c0: b628 74be cc76 99bf 451d 9e3f 1ca3 2dbc
000001d0: 605b 433f d0b8 673e b5b7 a8bd 9c33 b23e
000001e0: a42e 5bbe 992a babf 13f2 34be aa4c 2bbf
000001f0: d058 e93e ea8f 23c0 ad85 62be 5ca0 123e
00000200: a819 00bf b939 a53e ee57 193f b7c1 44be
00000210: 0dd9 633c c048 4abe 7d1c 183f d156 393e
00000220: 00bb 8d3d 662a 53be e707 0bbf 83aa 243f
00000230: 1b26 15be 57ae 2ebf c33c 34bf 4171 87be
00000240: d44a 293f eea3 e73e 2bd6 e43d 90d1 813e
00000250: a140 5cbe 4292 40bf 86b4 103e 14dd a23d
00000260: 6fe7 0abf bb84 3c3f e8c4 423e 5866 483f
00000270: 705c 023f 2847 cebe 5afa 643e a1d8 42bf
00000280: fd88 1bbf 3c61 14bf 600e 163f 6769 c33e
00000290: 9a04 47bf 841e 563f a454 193e 500b b93b
000002a0: 9d52 adbe c857 8cbe e304 f63e c03f 5bbd
000002b0: c170 9e3e ddaa 473f a42b 66bf d1dc d3bd
000002c0: 0098 5cbe f8c6 d5bc e73f b5bb 899e 28bf
000002d0: 5854 3e3e 2cf2 623e a507 0abe 8ed3 96be
000002e0: 494f 86bb 8c64 fa3e 79bd abbe 7299 b1be
000002f0: 68cd cd3e ce9d 0cbf 9a9a 013f 3414 b7bd
00000300: 9e5f 49bf cfe4 3fbf 16fc 31bd b5d4 773e
00000310: 2793 083e 1015 363e 404b 01bf 825d 023e
00000320: de35 3f3e bc1b 513d 1c5d 7bbd 57a7 05bf
00000330: 9d96 153f 7017 2ebe da6e 503f af59 0a3e
00000340: 797a dabe 1a59 efbe 388c d8be 50dc 55be
00000350: 677e 38bf 102b 273e 41c8 bf3e 0bc9 f43e
00000360: 9c77 14bd 79eb 123f 781e 2c3e 21b8 10bf
00000370: 6454 21bf c257 433f 56fc 45bd fe6f 753e
00000380: 806a 193f c78d bcbb 2e99 103f 83c3 073e
00000390: 3d94 9b3e 1b9b 26bf 2e88 09be 9f02 203e
000003a0: 3ee2 a5bc 8fbf ef3e 3601 97be 992b 0b3f
000003b0: 8eab 1fbf 8e66 8dbe 9f83 9fbe e118 e4be
000003c0: f843 bd3d deab 4ebd 1de6 253f e23a e53d
000003d0: 82e4 743f 50c8 d83e cb22 84bf 11cb 0d3f
000003e0: 9caa 7f3d 693f f03e 28bf 94be 1591 9f3e
000003f0: e03b 50be d8b6 a23e 2f3e 7bbe 7024 52be

bias f4 [96]
-0.035034925 0.11212432 0.025973124 -0.19217397 -0.12305993 0.008614945 -0.16886719 0.1324509
-0.0977246 0.116910465 0.049767293 -0.07480019 0.2898885 -0.0025251727 0.059636604 -0.14581701
-0.075060785 -0.11540877 -0.03869056 0.06310816 0.32676217 0.26482132 -0.13778447 -0.05942627
-0.3233967 -0.1148853 0.11930729 -0.037978634 0.16361319 -0.0027644963 -0.051872708 -0.1559761
0.0074000764 -0.1132258 -0.09056989 -0.08358466 0.23160402 -0.027034877 0.3596173 0.24248517
0.12093738 0.2706847 -0.0025198606 0.07867202 0.000449913 0.046677522 0.37471724 0.042191092
-0.08101148 -0.038667202 -0.082537815 0.0055202497 0.03499721 0.2630645 0.1693302 -0.11302735
-0.033031434 -0.09128899 -0.066049665 -0.07694324 -0.09051378 -0.13852863 -0.04030385 -0.048272405
-0.091083914 0.101330996 -0.0725525 0.014553003 -0.091216475 -0.0027269893 0.26893073 -0.060281765
0.008463013 -0.015865881 0.17223959 0.31089973 0.14604445 0.21044819 -0.10145494 -0.024673969
0.12719116 -0.06643198 0.3955216 -0.0028606867 -0.08442258 -0.096609816 -0.006082187 -0.040200494
-0.10741588 0.07191616 -0.034568615 -0.061674155 0.09640815 -0.07417632 -0.05935359 0.32906303
00000000: c880 0fbd 6fa1 e53d 97c5 d43c 41c9 44be
00000010: d806 fcbd b325 0d3c 85eb 2cbe 35a1 073e
00000020: d623 c8bd c16e ef3d cad8 4b3d d830 99bd
00000030: 446c 943e 5e7d 25bb 8345 743d 0e51 15be
00000040: 78b9 99bd 6f5b ecbd fe79 1ebd da3e 813d
00000050: 5f4d a73e a996 873e 5f17 0dbe f668 73bd
00000060: 4194 a5be fc48 ebbd 6157 f43d 7c8f 1bbd
00000070: 378a 273e 8d2c 35bb 7a78 54bd 33b8 1fbe
00000080: 577c f23b eee2 e7bd b57c b9bd 6f2e abbd
00000090: 9b29 6d3e 3f78 ddbc c21f b83e 084e 783e
000000a0: 04ae f73d 2f97 8a3e 3f24 25bb cc1e a13d
000000b0: 4de2 eb39 ee30 3f3d f0da bf3e 91d0 2c3d
000000c0: 59e9 a5bd 8061 1ebd 9609 a9bd 36e3 b43b
000000d0: 3c59 0f3d 64b0 863e e564 2d3e e27a e7bd
000000e0: f84b 07bd b9f5 babd 0c45 87bd 6b94 9dbd
000000f0: 4a5f b9bd 73da 0dbe a615 25bd 49b9 45bd
00000100: 348a babd a086 cf3d 6896 94bd b86f 6e3c
00000110: b4cf babd 4ab7 32bb 4ab1 893e 03ea 76bd
00000120: 73a8 0a3c 2af9 81bc 935f 303e 402e 9f3e
00000130: ad8c 153e bb7f 573e 9cc7 cfbd 1021 cabc
00000140: 663e 023e 7d0d 88bd cf81 ca3e 5c7a 3bbb
00000150: bfe5 acbd 5edb c5bd 154d c7bb 46a9 24bd
00000160: dbfc dbbd c848 933d d297 0dbd 0a9e 7cbd
00000170: a371 c53d c1e9 97bd c01c 73bd f37a a83e

weight f4 [64, 96]
0.10828059 0.35076988 0.42714384 0.024084724 0.28861883 0.06923012 0.25507414 0.10164334
-0.13099214 -0.9251698 0.45912102 0.17538886 -0.42623624 0.200781 0.015046806 -0.24123053
0.071461655 0.12422746 0.019146351 -1.7621773 -0.7638042 -1.0276557 0.017093912 0.02752284
-0.010784953 -0.06282793 -0.40736908 -0.10294534 0.34640038 0.0019104156 -0.03096256 0.038014308
-0.02466147 -0.12279414 -0.09322403 -0.044784736 0.29486656 0.24033958 -0.7360313 -0.18694744
-0.80115163 -0.07596297 0.02407891 0.1286725 -0.004117919 -1.7261716 -0.16390325 -0.101024926
-0.0011212496 0.08334761 -0.07575329 0.07718677 0.07251853 -0.01788969 -0.048707124 0.04943761
-0.7419183 -0.027934061 0.1522617 0.097302675 -0.030559856 0.01324046 -0.08015858 0.006606674
-0.02453883 -0.7962538 -0.0036124103 -0.09815426 -0.026131291 -0.18861988 -0.63578886 -0.045146383
-0.020205913 0.028347086 -0.39871445 -0.5507861 1.0734593 -0.45722386 -0.011082429 -0.094995685
-0.07247335 0.06674509 -0.24792074 0.004542402 -0.06863074 -0.067882605 -0.6534569 -0.09297429
-0.052954916 -0.2307245 0.27501786 0.054379754 0.21004955 -0.098187335 0.009178092 -0.6365506
-0.21972239 0.22165251 -0.19424856 0.19685268 0.34991437 -0.025983118 -1.0141759 0.1734275
-0.02997142 -0.9451644 0.56393373 -0.07778112 0.21862549 0.31573993 -0.9362104 0.055251617
-0.08955916 -0.44738862 -1.7068517 0.035006676 -0.16657293 0.4458505 0.06464431 -0.102265045
-1.1126704 0.046837468 1.0089836 -0.0811789 0.4779358 -0.7174628 -0.005571004 0.08474102
-0.047095094 -0.12524994 -0.04090688 -0.053611 -0.7259676 0.05748604 0.2561184 -0.020980315
0.24481003 -0.67573035 -0.06846399 -0.33529004 0.037855413 0.40056756 -0.023629295 0.0123429615
0.2062615 -0.014775296 -0.005400004 -0.07366271 0.077326715 -0.91592914 -1.0053426 -0.1271339
-0.5098515 0.059993263 0.1083135 -0.08518517 -0.034637477 0.023200631 -0.012041803 -0.09337972
0.028834267 -0.07629786 -0.0045114653 0.033449944 -0.08962192 -0.27592656 -0.17720895 -0.10166254
-0.04017714 0.07337605 -1.2796077 -0.08686849 0.2857005 -0.17237778 -0.034127496 0.14096506
-0.0696734 -0.06575387 -0.82077897 -0.16013563 0.044971403 -0.07213551 0.33062643 0.08265881
-0.114719205 -0.18782243 0.26836824 0.06043998 -0.59377915 -0.09074317 -0.030929558 0.025867308
-0.4831609 -0.48711786 0.014021513 -0.40948623 0.09864679 -0.007882812 0.24147318 -0.0024931554
-0.0039846194 0.09437265 -0.099841155 0.10133711 -0.0910261 0.6156948 -2.7307143 0.00019089313
0.3010733 0.5974108 0.14762837 -0.22159013 0.336975 -0.074110925 0.033271655 -0.032103483
1.3196839 -0.11638545 -0.09453875 -0.11576939 0.21916272 -0.48162642 0.3329021 -0.008750418
-0.12069538 0.05603322 -0.23569888 -0.089423455 0.33644232 -0.004102713 0.7441146 -0.4982283
-0.1901662 -0.31479266 -0.1042738 0.01475344 0.118152425 0.061612315 0.5269189 0.08545519
-0.017859288 -0.015552291 -0.061226886 -0.043418985 -0.008471806 -0.61023575 -0.4332945 -0.015766256
0.09851808 -0.028167803 0.12299413 0.025870325 0.04352117 0.029468363 0.09806563 0.021730382
00000000: 37c2 dd3d 1c98 b33e 99b2 da3e 544d c53c
00000010: d9c5 933e 85c8 8d3d 1499 823e 622a d03d
00000020: ce22 06be eed7 6cbf e911 eb3e 2399 333e
00000030: a33b dabe 8999 4d3e e186 763c 2305 77be
00000040: 7d5a 923d f76a fe3d cfd8 9c3c 078f e1bf
00000050: ac88 43bf 398a 83bf 8808 8c3c 9477 e13c
00000060: 5fb3 30bc eeab 80bd ae92 d0be 02d5 d2bd
00000070: 645b b13e e966 fa3a 32a5 fdbc e4b4 1b3d
00000080: da06 cabc 7e7b fbbd 3eec bebd 3370 37bd
00000090: c0f8 963e 941b 763e 8c6c 3cbf 266f 3fbe
000000a0: 4618 4dbf 7992 9bbd 2241 c53c b9c2 033e
000000b0: 9cef 86bb 31f3 dcbf 41d6 27be 28e6 cebd
000000c0: e5f6 92ba 27b2 aa3d 8a24 9bbd 1914 9e3d
000000d0: 9884 943d 668d 92bc 1f81 47bd 177f 4a3d
000000e0: 5cee 3dbf f9d5 e4bc 7eea 1b3e a046 c73d
000000f0: aa58 fabc 84ee 583c 2e2a a4bd cc7c d83b
00000100: a805 c9bc 4ad7 4bbf 30be 6cbb 1a05 c9bd
00000110: 4a11 d6bc 9225 41be 0fc3 22bf 6aeb 38bd
00000120: df86 a5bc 2638 e83c 4d24 ccbe 5100 0dbf
00000130: 1d67 893f 3f19 eabe 1493 35bc 198d c2bd
00000140: e86c 94bd a6b1 883d efde 7dbe 6ed8 943b
00000150: 468e 8cbd 0906 8bbd f448 27bf 4e69 bebd
00000160: 41e7 58bd 0b43 6cbe 24cf 8c3e 4ebd 5e3d
00000170: 3b17 573e 7116 c9bd b55f 163c fbf4 22bf
00000180: e8fe 60be e0f8 623e 18e9 46be c093 493e
00000190: fa27 b33e 8cda d4bc 84d0 81bf fb96 313e
000001a0: a086 f5bc 4bf6 71bf f65d 103f b54b 9fbd
000001b0: 5cdf 5f3e aaa8 a13e 7cab 6fbf 854f 623d
000001c0: cb6a b7bd 1f10 e5be 1e7a dabf 2963 0f3d
000001d0: 1892 2abe 8446 e43e 3c64 843d 5670 d1bd
000001e0: fc6b 8ebf a5d8 3f3d 6026 813f 2041 a6bd
000001f0: 00b4 f43e a4ab 37bf f88c b6bb b38c ad3d
00000200: c9e6 40bd 8541 00be f98d 27bd 3597 5bbd
00000210: 03d9 39bf 7b76 6b3d f321 833e e9de abbc
00000220: 7baf 7a3e aafc 2cbf d936 8cbd 23ab abbe
00000230: 470e 1b3d 3117 cd3e 3992 c1bc 223a 4a3c
00000240: 3736 533e 1514 72bc 84f2 b0bb 7adc 96bd
00000250: 785d 9e3d 557a 6abf 11af 80bf 642f 02be
00000260: a185 02bf 7fbb 753d 78d3 dd3d 9075 aebd
00000270: 07e0 0dbd 400f be3c fc4a 45bc de3d bfbd
00000280: d735 ec3c 0d42 9cbd ead4 93bb cf02 093d
00000290: b28b b7bd 3f46 8dbe 4376 35be 7334 d0bd
000002a0: c990 24bd 2f46 963d 2fca a3bf 1be8 b1bd
000002b0: 5647 923e cd83 30be 46c9 0bbd 2559 103e
000002c0: edb0 8ebd f7a9 86bd 921e 52bf 98fa 23be
000002d0: ef33 383d c8bb 93bd de47 a93e 0649 a93d
000002e0: e7f1 eabd 8654 40be 9067 893e ea8f 773d
000002f0: e901 18bf 8ed7 b9bd fc5f fdbc ade7 d33c
00000300: de60 f7be 8367 f9be 7dba 653c 2ea8 d1be
00000310: 5407 ca3d e926 01bc bf44 773e 3564 23bb
00000320: 6991 82bb 7346 c13d 8579 ccbd d589 cf3d
00000330: e46b babd 2d9e 1d3f 06c4 2ec0 7c2a 4839
00000340: 4826 9a3e eaef 183f e42b 173e 86e8 62be
00000350: fd87 ac3e 78c7 97bd dc47 083d f17e 03bd
00000360: 67eb a83f 7f5b eebd 889d c1bd 8018 edbd
00000370: 316c 603e bd97 f6be 2572 aa3e ea5d 0fbc
00000380: 242f f7bd 1783 653d 0c5b 71be a523 b7bd
00000390: 2b42 ac3e 0d70 86bb 4b7e 3e3f c817 ffbe
000003a0: eeba 42be 812c a1be 818d d5bd 6ab8 713c
000003b0: e6f9 f13d 325d 7c3d 28e4 063f 2103 af3d
000003c0: a44d 92bc 09cf 7ebc 0bc9 7abd 1bd8 31bd
000003d0: 54cd 0abc 6938 1cbf c7d8 ddbe 3c28 81bc
000003e0: d9c3 c93d 2ac0 e6bc 59e4 fb3d 01ee d33c
000003f0: 4143 323d a367 f13c a2d6 c83d ea03 b23c

bias f4 [64]
0.69543356 0.6140023 -0.08565276 0.75365925 -0.26608363 1.4249954 0.43689603 0.41971222
0.5769737 0.5218217 -0.4416583 0.579749 0.55763036 0.40874204 0.7634779 -0.22402267
0.45458004 0.0024035214 -0.10850518 0.25883347 0.84415394 -0.61032325 1.9875598 1.3319716
-0.11839331 1.3242445 0.91646457 -0.22290862 -0.4025227 0.031762388 1.1003536 0.29972094
-0.39234892 -0.15174279 -0.3037188 0.26860988 0.147404 0.19876766 0.11701354 1.0616311
-0.10697591 0.5014607 -0.22485322 -0.027032964 -0.119190596 0.4088854 -0.038299363 0.57873833
0.31450188 -0.21242979 0.5648862 -0.056706857 0.8666101 0.26105317 1.7382015 0.2604981
-1.6451231 0.24170148 0.06075543 1.2535756 0.35898477 -1.5981143 -0.24319196 -0.009321459
00000000: ef07 323f 412f 1d3f b76a afbd d0ef 403f
00000010: 1d3c 88be 4066 b63f d6b0 df3e 85e4 d63e
00000020: 8cb4 133f 1b96 053f 0921 e2be 6e6a 143f
00000030: ddc0 0e3f a346 d13e 4a73 433f 3366 65be
00000040: b7be e83e 6684 1d3b f737 debd d285 843e
00000050: 791a 583f 253e 1cbf 5c68 fe3f 0c7e aa3f
00000060: 3178 f2bd d880 a93f 6c9d 6a3f 2842 64be
00000070: 7517 cebe 4719 023d 63d8 8c3f 0675 993e
00000080: f5e1 c8be 7662 1bbe 0881 9bbe 3c87 893e
00000090: 13f1 163e c089 4b3e cba4 ef3d 87e3 873f
000000a0: 3016 dbbd ba5f 003f ec3f 66be 3c74 ddbc
000000b0: 331a f4bd 6d59 d13e cbdf 1cbd 3228 143f
000000c0: 6406 a13e 3287 59be 629c 103f 7345 68bd
000000d0: 29da 5d3f c3a8 853e 637d de3f 0260 853e
000000e0: 6593 d2bf 9880 773e b0da 783d 2a75 a03f
000000f0: dacc b73e 028f ccbf 5007 79be 08b9 18bc
